2019010406_xujingfan_hw4/src/lenet.pth (torch, 121077 bytes, 14 tensors)

layer1.0.weight f4 [16, 1, 5, 5]
00000000: 8d1d 46be 5bd7 3b3e 6fb5 453e 377f 203e
00000010: 33c9 1a3e c4a4 fabd 5263 c9bc dae6 0ebe
00000020: dde1 92bc f433 af3b 9a9c 1dbe c5af f9bd
00000030: 7c34 15be 548d d93d 4eb5 213d de3c 4cbe
00000040: f79e b23a 3fdf 1bbe 6baa 4cbe fc60 91bd
00000050: 67c0 f53d 2cd1 dabc 511f 893d b029 a2bd
00000060: b815 6f3d e7e6 36be b87c c7bd e19c 1a3e
00000070: 66d9 01bd 5a86 943b 2d55 0a3b 5f72 89bd
00000080: f3bb 0f3d 1bda 3b3e f6a5 783c d0d6 8eba
00000090: 1929 563c 4816 6f3e 29ab 133e 54b7 1dbd
000000a0: b2a4 8dbc e485 003e 4bb2 0b3d a0d6 6fbe
000000b0: 499e 4f3d ecf4 ac3d d4a2 103e e3e4 e9bb
000000c0: aab2 3dbd 4c4a 2d3e 1b16 26be a7fe aabd
000000d0: e0a1 003e 573d fbbc 0bed 11bd a41e e23c
000000e0: 2808 cdbd 4dfc 993d f0d8 0b3e 41dc 243e
000000f0: a02b 043d 8824 093e d19d f83d 93c4 673d
00000100: aa5e 93bd 0e4b 3abd fdbf 89bd 2541 0bbe
00000110: cbde 03be 988d 6dbd b7a1 cbbd fe73 3abd
00000120: e8ef f4bd 7cf8 933d 7e26 0e3d d91c 393e
00000130: c127 b43d e0cb febd e0f0 f3bd 4341 23bd
00000140: 3c15 0bbe 3141 b6bd c794 3abe 5216 d2bd
00000150: d438 a83d 0961 ecbd 51f0 c43d 422f 023c
00000160: baab e03a df6d 9fbd 153b 3dbe 55ea 4c3d
00000170: 3aa2 633d a5f3 acbc adc0 fa3d 0e42 3dbe
00000180: 3a05 e4bd 422b 113e d4e9 063e ec44 66bd
00000190: d647 65bd 7cfc f43d deb7 573d 82a4 27bd
000001a0: 0151 d63a f965 35bc bada 34be 064e 0d3e
000001b0: 604f 093d 804c ae3d 61c2 b7bd 14de 33be
000001c0: 6f88 4d3e 0fd2 4e3d 580d 553d af80 1b3e
000001d0: a191 fa3d 1f2c 653d 9bd8 c73c 41a1 b3bd
000001e0: ff20 183e ccde 82bd 37de f1bd a7cb b1bd
000001f0: 5c58 263e dafb 223e c4cf 2e3e bedd 1d3e
00000200: cbd7 f1bd 911f 393d 23ac 34be f2f1 fcbc
00000210: 419c 62be 31e6 2cbe bdc5 0abe fde1 0cbe
00000220: 45a5 39be ca07 c9bd 718d 153e 3a37 a0bc
00000230: 31f2 413e de12 ffbd 673a be3a 60b3 983d
00000240: 7aef 9f3d 1211 24be 59e8 553e a544 6cbc
00000250: dd0e cebc c6a4 c53a deb8 58be fb2a b9bd
00000260: bc4f 00be b1f5 063e 250c 2cbd 2a43 55be
00000270: 24a4 8b3d 3527 31be 2144 35be b6a3 efbd
00000280: d24a 84bd 5ef3 303e 257d 053e 0237 da3d
00000290: e689 4e3e 5827 92bc 5b5e 3ebd 1760 223e
000002a0: 8650 003b bdae e23d bbda 1dbe bba5 9dbd
000002b0: a620 07bd d371 31be 83f9 103e 330d 34bd
000002c0: ab65 1cbd e49c f43d fa10 80bd 4745 a33c
000002d0: 39c4 a63c 9645 1bbe cc67 da3d b5ac f5bd
000002e0: e237 c6bd 3e2a 01be 2535 4a3b 81bc e5bd
000002f0: f095 e9bd 70a4 1ebe 2644 053e 0979 ed3b
00000300: 1b6e 9cbd 31f1 f33d c5bd 8e3d e6de 6f3c
00000310: d9fb d63d 4b02 49bd ecaa 0c3d 48b6 0b3e
00000320: 7fea 413e 3a30 19be 815e a8bd 19fe b13c
00000330: 76d1 b8bd 518b fb3d 7dfd cdbd e44e f2bd
00000340: 2293 2fbc 3499 1cbe de2a 803d 1221 e7bc
00000350: cfee 15be a6af 403e c2c3 d0bd 452d b9bd
00000360: 1c9c 28be 128a 8c3c 5a70 0e3e 9f69 173e
00000370: eb37 a93c 222f c83d 5806 da3d 0f4a f03b
00000380: 1805 1dbe b917 8d3d e944 053e c2c3 90ba
00000390: 4a97 8abd 7984 093e 9580 8cbd 15d6 4a3d
000003a0: c703 033e fd87 6abd c47c a33c e5dd 5cbe
000003b0: a8f1 b9bc 787f f83b 69ee 1d3e e225 56bc
000003c0: ea74 5b3b e9c1 d4bd c8fa 34be 53de a6bd
000003d0: 638e 1e3e 09e6 3abe 83d5 9ebc b27d b2bc
000003e0: 867d 3a3e d870 7e3d 2e77 243c baa5 eebc
000003f0: 8349 6b3e af0f 233e b5c2 593e 4871 d03d
-0.1934721 0.1834387 0.19307493 0.15673529 0.15115814 -0.12238458 -0.024583492 -0.1395525
-0.017929966 0.0053467695 -0.1539177 -0.121917285 -0.14570802 0.10622659 0.039479546 -0.19945094
0.0013627697 -0.1522188 -0.19986884 -0.070985764 0.119995885 -0.026711069 0.06695426 -0.079181075
0.058370322 -0.1786152 -0.09740585 0.15098907 -0.031701468 0.0045326175 0.0021107898 -0.06711268
0.03509135 0.1834492 0.015176287 -0.0010897759 0.013071322 0.23348343 0.14420761 -0.038504913
-0.017290447 0.12551075 0.03410558 -0.23421717 0.050688062 0.08445153 0.14124614 -0.007137881
-0.046312965 0.16922873 -0.1621937 -0.08349352 0.1256175 -0.030668898 -0.035626452 0.027602501
-0.10011321 0.07518826 0.13656974 0.16099645 0.032268167 0.13392842 0.12139476 0.056583952
-0.0719579 -0.045481734 -0.06726072 -0.1359907 -0.12877958 -0.057996362 -0.09942954 -0.045520775
-0.11959821 0.07225129 0.034704678 0.18077411 0.08796645 -0.1244123 -0.11911178 -0.03985716
-0.13582319 -0.08899153 -0.18220817 -0.102581635 0.08213964 -0.115419455 0.09616149 0.007945837
0.0017141022 -0.07784628 -0.1847957 0.050028164 0.055574633 -0.021112273 0.12243781 -0.18482229
-0.111338094 0.14176658 0.13175136 -0.056218073 -0.05597671 0.1196222 0.052665584 -0.04092837
0.0016351045 -0.011071675 -0.17661563 0.13799295 0.033522964 0.08510685 -0.08972622 -0.17565185
0.20071577 0.050493296 0.05201468 0.15185808 0.12234808 0.05595028 0.024395278 -0.08770991
0.14856337 -0.063901514 -0.11809962 -0.08681422 0.16244644 0.15916386 0.17071444 0.15416619
-0.11808737 0.04519612 -0.1764379 -0.030877087 -0.22129919 -0.16884686 -0.13551994 -0.13758083
-0.18129452 -0.09815939 0.14604737 -0.019557584 0.18940045 -0.124547705 0.0014513255 0.07456088
0.078093484 -0.16022137 0.20889415 -0.014420663 -0.025153572 0.0015079014 -0.21164271 -0.09041401
-0.12530416 0.13179661 -0.04200377 -0.20826402 0.06818417 -0.17300113 -0.1770177 -0.11701147
-0.06459583 0.17280337 0.1303602 0.10655023 0.20169792 -0.017841026 -0.046476703 0.15856968
0.0019579246 0.11068485 -0.1541547 -0.07697626 -0.03299012 -0.17328577 0.14157681 -0.0439579
-0.038182896 0.11943987 -0.06253238 0.019930495 0.020357238 -0.15163264 0.10664329 -0.11995832
-0.096786276 -0.1261377 0.003085443 -0.11217595 -0.114055514 -0.15492415 0.13014278 0.0072470945
-0.076381885 0.11911238 0.069697894 0.0146405455 0.10497255 -0.049074452 0.03434269 0.13643754
0.1893711 -0.14959803 -0.0822115 0.021727609 -0.090243265 0.12282432 -0.10058115 -0.118314534
-0.010716232 -0.15292817 0.06258176 -0.028214011 -0.1464188 0.18817005 -0.10193588 -0.090418376
-0.16465801 0.01715568 0.13910046 0.14786385 0.020656547 0.09774615 0.10645741 0.007333047
-0.15333974 0.0688929 0.13014568 -0.0011044668 -0.06767137 0.1342944 -0.068604626 0.04952057
0.1279441 -0.057258595 0.019956954 -0.21569021 -0.022698238 0.007583555 0.15422978 -0.013070555
0.0033486434 -0.10388548 -0.1767379 -0.08147874 0.15484004 -0.18251814 -0.01938892 -0.021788452
0.18211946 0.062119335 0.01003818 -0.029131759 0.22977261 0.15923952 0.21265681 0.10177857

layer1.0.bias f4 [16]
00000000: 5360 8b3d 962c 08bc d264 2c3e 6c30 a2bc
00000010: 0416 c2bd a4b4 d6bd ad0f f4bc e06b 8c3d
00000020: 3e1d 5d3e 27fe 943c 217d 253d 1e25 27be
00000030: 0d6e 4c3e 3378 303d 2244 123e b64c 903d
0.06805482 -0.008311411 0.16835335 -0.01979848 -0.094768554 -0.10483673 -0.029792631 0.06856513
0.21593186 0.018187596 0.040402535 -0.16322753 0.19963856 0.04308338 0.14283803 0.070458815

layer1.1.weight f4 [16]
00000000: 7609 873f 93d8 6e3f 334d 7b3f 543b 823f
00000010: af8c 723f 7c63 883f a1d0 7b3f 6321 7b3f
00000020: 31b0 7e3f c8e4 7b3f d9e7 7b3f d7d2 803f
00000030: ff44 843f aeb6 853f a4dc 7d3f 81d3 843f
1.0549762 0.93299216 0.9816467 1.0174356 0.94745916 1.065536 0.9836522 0.9809782
0.99487597 0.9839597 0.98400646 1.0064343 1.0333556 1.0446374 0.99164796 1.0377046

layer1.1.bias f4 [16]
00000000: ad00 e2bc e2cc 60bd ce8b 2cbc 69af 95bd
00000010: cf7a 39bd fe52 b9bd 2d93 16bd 1e28 8cbd
00000020: 7082 81bd 9cff 7abd bfb9 7b3c 1783 f73a
00000030: 95bf 41bd d400 94bc 9faa abbd dd60 89bd
-0.027588213 -0.05488289 -0.010531379 -0.073088475 -0.045283135 -0.09049033 -0.03676145 -0.06843589
-0.06323707 -0.061278924 0.01536411 0.0018883672 -0.047301847 -0.018066801 -0.08382153 -0.06707928

layer1.1.running_mean f4 [16]
00000000: ece3 5ebb 8329 a73d 18b7 153e 4435 c9bd
00000010: 8918 d9bc 390c 18be 17bb b8bd b515 1f3d
00000020: e849 353e 8ea7 c43c 07d0 613d 0d44 3dbe
00000030: fb4a 263e ad45 16bd 9217 b83d 6da0 dcba
-0.0034010364 0.081622146 0.14620626 -0.09824613 -0.026500957 -0.14848413 -0.090200596 0.03883906
0.17703974 0.024005678 0.05513003 -0.1848299 0.1623954 -0.03668754 0.08988871 -0.0016832479

layer1.1.running_var f4 [16]
00000000: d819 443d 57d3 2c3d 1cd3 883c 6d51 263d
00000010: accd a53c 8065 e83c 54ee 243d 74f7 8b3c
00000020: a091 ac3c aa0a cb3c 9e79 ee3c 1167 3e3c
00000030: c5e4 493d bc5e 013d 8cce da3c af9d 8a3d
0.04787621 0.042193737 0.016702227 0.040604997 0.020239674 0.028368711 0.04026635 0.017085768
0.021065533 0.024785358 0.029110726 0.011621253 0.049290437 0.031584486 0.026709817 0.06768357

layer2.0.weight f4 [32, 16, 5, 5]
00000000: 2a87 c6bc a23d 4d3b c866 8fbc 1caa acbc
00000010: 256c 17bd 8b6e 1bbd ca57 74bd e620 5bbd
00000020: edcf fe3c bf53 9d3a c2df 30bd 2ca4 78bc
00000030: 820e 4ebd 0784 4a3d b438 d23c b31f f5b9
00000040: efb9 cdba 8be7 303d cef5 1b3d 3a61 603c
00000050: c815 023d d206 cabc cbdd ce3c 4e1a 0abd
00000060: 402c 1abc 2548 9e3c 0846 553d 7dc5 473d
00000070: fcf3 40bd e564 e1bc ab8c 243d e02a 803c
00000080: 31a4 b3bc 1447 56bd 4217 e13c 16e6 2a3d
00000090: 9698 18bd 7c3c 82bc 030e 63bc 0516 21bc
000000a0: 9011 83bc 5cf2 2bbd f457 583c ce7b 0f3d
000000b0: cab5 3bbd bb1d 423c 9f6c 203d 52d0 863c
000000c0: 0778 c63c 1c8b 1c3c de46 25bd 7829 c7ba
000000d0: a230 42bd 6d3a 983c f6d7 14bd d614 44bd
000000e0: fa16 fcbc a170 41bd 7432 2c3d abf5 4f3d
000000f0: 071c 1ebc 385a b1bc 5675 4b3d 49ea bc3c
00000100: e7c7 a43c bf6a 51bd 35f7 f0bc 9a42 eebc
00000110: 6141 68bc 0d4b f03c 5a57 603c a23a 433d
00000120: a675 83bb f449 863b 1103 cc3c 5cb7 cc3c
00000130: 05b3 4d3d 340a 7cbc a227 423d d4ab 003d
00000140: 8068 ec3c 76d0 163d d4e5 8bbc d4b3 223d
00000150: 73c3 493d 0957 5e3d 7f17 89bc 6fec dd3c
00000160: ac45 30bd 02e9 89bc 7ba5 573d 255e d93c
00000170: 7ddd 4bbd 54ae 63bd e0eb a3bd 92d9 fd3c
00000180: 8321 4abc 29e6 1dbd 5846 cabc 86d7 633b
00000190: cb71 2fbd 6a56 233d d9cc 183d 3bed a73c
000001a0: aa87 fc3c dd03 2f3d a97f 3abc a710 e0bc
000001b0: aa9c 91ba 2a8c 2bbd b469 1a3c 48ce e33c
000001c0: b7b3 063d 7749 983c 4ba4 083d ec68 eebc
000001d0: 01dc a1bb 07db 23bd 8ec1 0fbd 7a3d 1ebb
000001e0: bcf4 1abc f776 0fbd f84d e73c 88bd ac3c
000001f0: 2ed9 2f3b 317e 3d3c 9fb0 93bb c16c 94bc
00000200: ffe5 1abd fb02 43bd 46ca 5f3d 7dc7 fdbc
00000210: b859 e5bc 2936 f63b 5fc5 ad3b e54b 063d
00000220: 5ee2 7e3c 90c9 8cbb e9a1 73bc 6000 a23d
00000230: 59a3 94bd 3181 57bd 08d7 0ebd b9d1 30bd
00000240: 338a cd3c 87ff 59bc 12db 823c 1739 0d3d
00000250: 03f6 893d 986c 7a3c ef0c c7bc 27bf cd3c
00000260: a623 99bc 1a72 33bc 853a a9bc 7fc9 1e3c
00000270: a473 26bd ca86 d73c 1eef 373d adce 9cbc
00000280: 82ca 253d 8547 c83b f056 1abc f9d5 023d
00000290: f77d 893d a541 5f3c 92d6 853c 0420 c13c
000002a0: c38c 15bd 95b9 953a 9f1c 9e3b 618f 03bd
000002b0: 4ad5 38bd d979 e7bc dfbe 2fbd 6e5f 88bc
000002c0: 1a38 0e3d a3c7 05bd 5d8f d2bc d694 d7ba
000002d0: e5c9 1fbd 5220 10bd 4a2b fb3c 151e ee3c
000002e0: 3ea6 ddba 95ba ecbc 5c1e 6fbd 19e8 3ebd
000002f0: c3a7 3c3d 0397 793d 759a 163b 3304 a93c
00000300: eb41 4bbb 2c19 d83c 012e 38bd cee2 5d3c
00000310: b729 6fbc e35b 703d a2ca 893d 1ea1 0e3d
00000320: b012 213d 262c 6f3d 3820 343d 8eb5 453d
00000330: 6005 113c 0092 09bd 387e a43c ac9a 703c
00000340: c784 4d3d 6720 b1bc 9b49 e4bc f047 263d
00000350: 87e7 503d 1684 e3bb ec6f 8abb cee0 143d
00000360: 432b 683d 1539 813c 1375 4dbd 9860 7cbd
00000370: bc3b d7bc 2a5a fdbc 6554 ff3c 3e1b 8e3c
00000380: c801 a7bc 20ab 0f3d 9c5f bcb9 6f1b 01bd
00000390: 9ee2 a53a dfd2 fbbc 971c 17bd 480e 293c
000003a0: 7a0c 76bc 0c5d 273d bcc8 e33b 6d09 58bc
000003b0: 64c1 2abc d624 debc 86fe c73b 464a 183c
000003c0: 8382 18bd 26e0 8c3b 284b a4bc 12c5 33bd
000003d0: 683c f5bc 820d 07bd 084c 3b3c 10a8 693c
000003e0: dd9f 26bc 0028 45bc f8ba 4bbd dff5 a3bb
000003f0: 9eaf 583b d3f5 153d 4f37 103d eff9 d6bc
-0.024234373 0.0031317254 -0.017505065 -0.021077208 -0.03696837 -0.03794722 -0.059654035 -0.05349817
0.031105006 0.0012003108 -0.043182142 -0.01517586 -0.050306804 0.049442317 0.025661804 -0.0004675366
-0.0015695671 0.043189567 0.038076214 0.013695056 0.031759053 -0.024661455 0.025252244 -0.033716492
-0.009409964 0.01932151 0.05206874 0.048772324 -0.04710768 -0.02751393 0.040173214 0.015645444
-0.021928879 -0.05231388 0.02747691 0.041723333 -0.037254892 -0.015897982 -0.013858321 -0.00983191
-0.015999585 -0.04197918 0.013204563 0.03503018 -0.045827664 0.011847909 0.03916609 0.016456757
0.024227155 0.009554651 -0.040350787 -0.0015194854 -0.04740966 0.018582547 -0.03633877 -0.047871433
-0.030772675 -0.047226552 0.042040303 0.050771397 -0.009650237 -0.021649465 0.049672447 0.023060935
0.020114852 -0.05112719 -0.029414752 -0.029084492 -0.014175744 0.029332662 0.013692701 0.04766334
-0.0040118275 0.0040981714 0.024903806 0.024989776 0.050219554 -0.015383292 0.047401078 0.031413868
0.028858423 0.036819898 -0.017077364 0.03972228 0.04925866 0.054282222 -0.016734837 0.02709028
-0.043035194 -0.01683474 0.05264805 0.02653415 -0.049771775 -0.055586174 -0.08003974 0.030987535
-0.012337091 -0.038549576 -0.024691746 0.0034765913 -0.04283313 0.039877333 0.037304733 0.020498862
0.030826408 0.042728294 -0.011382976 -0.02735169 -0.0011109312 -0.041881718 0.009424616 0.027808324
0.032886233 0.018589718 0.033359807 -0.029102765 -0.0049395566 -0.040003803 -0.035096698 -0.002414553
-0.009457763 -0.035025563 0.02823542 0.02108647 0.002683233 0.011565731 -0.004507139 -0.018118264
-0.037816998 -0.047610264 0.054636262 -0.030978912 -0.027996883 0.0075137806 0.0053030695 0.032787222
0.0155569 -0.004296489 -0.014870145 0.07910228 -0.072577186 -0.05261344 -0.03487304 -0.043168757
0.025090313 -0.013305551 0.015973601 0.034478273 0.06736376 0.01528468 -0.02429816 0.025115563
-0.018693756 -0.010952497 -0.020657787 0.009691595 -0.040637627 0.02630939 0.044905774 -0.01914152
0.04047633 0.0061120414 -0.009420142 0.03194234 0.06713479 0.013626491 0.016337667 0.023574837
-0.036511194 0.0011423106 0.0048251892 -0.03211916 -0.045125283 -0.028256344 -0.04290664 -0.016647067
0.03472147 -0.03266109 -0.025703127 -0.0016447555 -0.0390109 -0.035187073 0.03066029 0.029067079
-0.0016910506 -0.028897563 -0.058378562 -0.046608064 0.046058428 0.06093503 0.0022980247 0.020631885
-0.0031014632 0.02637919 -0.044965748 0.013542844 -0.014597348 0.05868138 0.06728102 0.034821622
0.039324462 0.058391713 0.04397604 0.048268847 0.008851379 -0.033586502 0.020079717 0.014685314
0.050175454 -0.021621896 -0.02786713 0.04059595 0.05100205 -0.006943236 -0.004224768 0.036347203
0.056681883 0.01577429 -0.05016048 -0.061615556 -0.0262736 -0.030926783 0.031168172 0.017346974
-0.020386592 0.035075307 -0.0003592939 -0.031520303 0.0012656038 -0.0307402 -0.0368925 0.010318346
-0.015017623 0.04086022 0.0069514196 -0.013185841 -0.0104220845 -0.027117174 0.0061033396 0.009295052
-0.03723384 0.0042991815 -0.020055369 -0.043889113 -0.02993603 -0.032971866 0.0114317015 0.014261261
-0.01016995 -0.0120334625 -0.049738854 -0.0050036754 0.003306366 0.03661139 0.035208996 -0.026242224

layer2.0.bias f4 [32]
00000000: 56af 653d ecaa a13c e0b8 f53c a660 6e3c
00000010: 198a c8bb 6b0c e7bc 83bf a13c 74b9 ab3c
00000020: a947 66bd bcb1 a43b 4d3b 88bc eaeb b43c
00000030: 30c2 143d 7ba7 393d 0503 75bd f69d f93c
00000040: a81d 803c d3a8 2cbd d9cc 553d 69a5 0ebc
00000050: 3dfc 2c3d fe7d a43b aad9 85bc 907b 4e3d
00000060: 71c3 223c aec5 8bbd 87e6 ef3b 2814 c43c
00000070: 74d1 823c 73b0 3d3d ec0f 583d 05b7 b53b
0.056075417 0.019734822 0.029995382 0.01454941 -0.006119978 -0.028204164 0.01974464 0.020962454
-0.056220684 0.0050260704 -0.01662984 0.022085149 0.036318004 0.045325737 -0.059817333 0.03047083
0.015639141 -0.04215319 0.05219731 -0.008706429 0.04223274 0.0050199023 -0.016339142 0.050410807
0.009934292 -0.06824814 0.007321182 0.023935392 0.015969016 0.046310853 0.05274956 0.0055454993

layer2.1.weight f4 [32]
00000000: ccd3 8a3f 6ba0 863f a9b8 883f b893 893f
00000010: c324 893f e275 883f d61e 8a3f 6a9c 863f
00000020: dae7 8a3f 673f 893f 4716 8a3f 3ae7 883f
00000030: 3ba6 8b3f 94df 8b3f b557 893f a214 8a3f
00000040: 1f2b 893f 227b 853f 6e93 883f 2d4c 883f
00000050: 4889 873f 46ab 893f 196f 8c3f 4de4 893f
00000060: a2b4 8c3f c338 8a3f a0c5 893f b23e 893f
00000070: 10e7 873f 431d 8a3f 53f8 8a3f 363e 863f
1.0845885 1.0517706 1.0681354 1.0748205 1.0714344 1.0660975 1.079066 1.0516484
1.0852005 1.0722474 1.0788049 1.0695565 1.0910105 1.0927606 1.0729891 1.0787547
1.0716285 1.0428202 1.0669992 1.0648247 1.058877 1.0755394 1.0971404 1.0772797
1.0992625 1.0798572 1.0763435 1.0722258 1.061739 1.079018 1.0857033 1.0487735

layer2.1.bias f4 [32]
00000000: 5195 cf3c 8092 363c 00b1 893c 38d6 ed3c
00000010: 72a1 5c3c 614f 2f3c 952a be3c 30eb 373c
00000020: 7b4e ce3c d420 3b3c 10ba e13c 289c 403c
00000030: bff0 433d 4c03 173d 3db4 7d3c 5fc5 d43c
00000040: 4756 823c b64b a43a 77ad a63c 0a1b 063c
00000050: 28eb eb3b 7351 113d 19bf cd3c 93da 383d
00000060: a452 d03c 6555 263d 7ccc 153d aafb c43c
00000070: 86a1 e13b 17bf aa3b e776 f33c f37c 623c
0.025339754 0.011143327 0.016808033 0.029032812 0.013466226 0.010700078 0.023213664 0.011225507
0.025183907 0.011421401 0.027554542 0.011755981 0.047837015 0.03686838 0.015484867 0.02597302
0.01591028 0.0012534771 0.020346386 0.008185158 0.0071996637 0.035478067 0.025115537 0.045130324
0.025430031 0.040608782 0.036571965 0.024045784 0.00688571 0.005210768 0.029719783 0.0138237355

layer2.1.running_mean f4 [32]
00000000: 3aa5 4c3e 722b 97bd 94e8 16bd f830 0dbd
00000010: aa76 8d3d 35e6 b93e 4b29 583d ab87 d03e
00000020: 8659 3abe 1327 543e def9 813e 6a64 293e
00000030: 6716 1f3e a81a b03e be43 7ebd d7d1 1e3e
00000040: 8210 f13d e314 5c3c 463d 2d3e 237c 6b3c
00000050: d3e6 fc3c c319 f53e 8348 80be f2b7 2a3e
00000060: ebc5 0b3f e9e9 6b3e c7e8 cd3d d092 413e
00000070: 47cf 8f3e fdfd 043e a238 a5bd b0b6 a93e
0.19984904 -0.073813334 -0.036842898 -0.03447053 0.06907399 0.36308447 0.052773755 0.40728506
-0.18198213 0.2071803 0.25385946 0.16542211 0.1553589 0.34395337 -0.062076323 0.15509735
0.11770727 0.013432714 0.16917905 0.014372858 0.030871784 0.47871217 -0.25055322 0.16671732
0.54598874 0.23038448 0.100541644 0.18903661 0.28087828 0.12987514 -0.080674425 0.33147192

layer2.1.running_var f4 [32]
00000000: a0f8 413e 5a59 8d3e d61a 583e 6144 9d3e
00000010: 01e5 773e 55b9 6a3e c485 4f3e a50e 943e
00000020: 1938 6e3e d6cb 8d3e 7eba b03e 7304 5e3e
00000030: 1334 2d3e 5128 2f3e deff 903e e287 ff3d
00000040: 6efb 4f3e 2f5e ab3e 6a5e 503e 1804 783e
00000050: 879f 393e 5b58 9a3e f5da 6d3e 34ce 263e
00000060: b549 703e 20b6 743e 3435 8d3e 4395 383e
00000070: 06a9 383e 4946 453e 8375 1f3e 144d 813e
0.18942499 0.27607232 0.21103987 0.3071623 0.24208452 0.22922261 0.20265871 0.28917423
0.23263587 0.27694577 0.34517282 0.21681385 0.16914396 0.17105223 0.2832021 0.124770895
0.20310757 0.33470294 0.20348516 0.24220312 0.18127261 0.30145535 0.23228057 0.16289598
0.23465617 0.238976 0.27579653 0.18025689 0.18033227 0.19265093 0.15572171 0.25254118

fc.weight f4 [10, 1568]
00000000: 9602 a9bc 4601 93bc 6c67 0fbc 0732 a03a
00000010: bf47 8ebb f372 9b3c 0134 133c 8515 173c
00000020: 8d1a a93c 8bee 0d3c 3d7f 2fbc 0ea3 91bc
00000030: f7b1 893b eec7 693c 2dc6 d0bc 4eda 79bd
00000040: b5e2 84bc a607 f2ba 8bb2 923c bc9e b5bc
00000050: 7b0d 553b eda9 ffbc 4758 30bd 027f d8ba
00000060: ad59 463d 9b54 0abd 8352 6d39 582d e83c
00000070: a89c 05bb 2497 9abc 7333 e23c 0101 553d
00000080: a96f 92bc 31fb d23b 6b11 9e3b 1fce b23c
00000090: a203 bc3a 18d1 623c f843 a1bc b241 133d
000000a0: f66d adba 27f8 5a3d a298 083c 5c76 a83c
000000b0: 34e3 a03b c988 86bc c02a 773c 5ec5 233d
000000c0: 75ea 1cbb 2259 83bb a9a1 4f3b 5419 6e3c
000000d0: cd7c 1fbd 23d3 f9bb 4c99 44bd 2de6 0abd
000000e0: c5c0 8fbb 365c 13bc e712 b9bb fa74 7b3c
000000f0: c232 123c 9d1c 10bd 8ef7 a6ba 79e9 3d3c
00000100: 1311 7cbc 6415 21bd 4356 1f3d bdfd 253d
00000110: 22bf ec3a 3cd7 1ebc ab81 a5bb ff2c 2cbd
00000120: db8d 9cbc 7ee5 24bd 9c3c adbc d813 9cbb
00000130: 6545 83bb a3e1 91bc d719 51bc 147f cebc
00000140: 0824 a6bc 40e4 a1bc 0444 6abc 79d1 143c
00000150: 2428 64bb a3a7 fc3a 7457 2c3d d017 a63c
00000160: cd74 063c 1fb7 aabc e05e 403c 40d9 633c
00000170: 04e4 64bb f4c5 143d ce2e b33c f4fb 20b9
00000180: 4e3b 40bd 2712 b0bb 68dd d5ba 8f02 adbb
00000190: 4c49 0fbc e2e9 83bc 0929 17bc 543f 043c
000001a0: 1c23 84bc c065 b7bb eb8c 83bc d434 7dbc
000001b0: dba7 a4bc a97e 01bd 792a e13a e8b4 bc3c
000001c0: 23f5 b4bc d253 d1bc 8976 79bc f034 d4bc
000001d0: faf3 813c 527c 5b3c e17e 65bc a6c4 cfbb
000001e0: 795c 803b 834f 21bd 7f50 483c bc7d 00bd
000001f0: 0319 e5bc a399 dc3b 7147 cf3b 93ca 473b
00000200: cd89 34bb 3ee6 91bc 6570 f1bc 2515 c63c
00000210: 1357 4f3d 7cd2 5fbc 004e f03a eb32 023d
00000220: a817 cf3c 50f2 e33b ff9a 8a3c 2cc0 983a
00000230: d31c 09bc 5ba2 6d3c eaa3 afbb 503b 4abb
00000240: 68b9 02bd 6e8d 4bbc b359 87bc 90b6 243c
00000250: f5d6 1bbc a9cd efbc d61e 32bd e45e 24bd
00000260: 4bef adbc 799c 243c decb 66bc 8a1c 5fbd
00000270: b5b2 9ebc 739f 523a 2e25 13bd baa4 52bd
00000280: 199f d6bb 3241 bdbb bb57 c8bb ea04 f43a
00000290: b511 543c a8b8 fe3c 409a 713c 9056 49bc
000002a0: 59d2 b33c 0d0d 953c 98e3 45bc a379 0a3c
000002b0: 794d 4b3d 04ff 163d f9b5 e6bc 0faa 423d
000002c0: 8ec5 713d 2698 d4bc b765 57bc 2f27 8f3c
000002d0: 58eb 863d cd8f c73c b162 5dbb 1fb1 0d3d
000002e0: d19f 1ebc 5120 4fbd e008 d6bc 8e1b 633d
000002f0: 89f6 c63c 4595 093d d910 d73c 84bf b3b8
00000300: bad8 c8bc 7984 13bd e706 8b3c f0af a7bc
00000310: f59a bfbc 063c e7bc 33a7 3dbc a03e 103c
00000320: 15b1 19bc a84f a4bc 5b92 7cbc 82dc 0b3d
00000330: 5a26 783c 421d 23bd 5a4e 16bc 8c93 e7bc
00000340: a0f8 6f3c 6dc7 b3bc c7ea 103c eabe 09bc
00000350: 23a8 0f3d 0305 b33c 90cf 12bd 1853 c8ba
00000360: 2c58 d63b b686 83bc 8c53 b03c 201e b63c
00000370: 17de 0bbd 2892 7cba 1e47 9d3c 6e1b cf3c
00000380: c871 03bc 9722 8cba 070d 8fbc 73f6 ae3c
00000390: 793c 1bbd e289 9a3b da2d f73c 859b 9ebb
000003a0: 6a47 873b e901 073d ec5d 133c 33da 89bb
000003b0: 2b4a a7bb 912e ed3c 4fd4 42bd 6e14 1fbd
000003c0: fe36 783c 1d8d 7bbc becf 32bc 96d3 a43c
000003d0: d25a 8c3c 98e4 cabc ee92 b4b9 e114 c0bc
000003e0: 635d 953a 37f1 f2bb aebb edbb d7ac baba
000003f0: d3a4 11bc ef2b d1bb 3447 7c3b 6eb4 d63a
-0.020631116 -0.017944943 -0.008752685 0.001222194 -0.004342049 0.01897571 0.008984567 0.009221439
0.020642543 0.00866283 -0.010711488 -0.017777946 0.0042021233 0.014268858 -0.025485123 -0.060999207
-0.016221384 -0.0018465414 0.017907402 -0.022170417 0.0032509256 -0.031208957 -0.043052938 -0.0016517343
0.048425365 -0.033772092 0.0002263282 0.028341934 -0.0020387564 -0.018870898 0.027612424 0.05200291
-0.01787551 0.0064386358 0.0048238537 0.021826802 0.0014344344 0.013843797 -0.01968573 0.035951324
-0.0013231623 0.053459313 0.008337172 0.02056425 0.004909897 -0.016422646 0.015085876 0.039983146
-0.0023943458 -0.004008428 0.003168205 0.014532406 -0.03893738 -0.0076240464 -0.047997758 -0.03391092
-0.0043869936 -0.008994153 -0.0056480053 0.015347714 0.008923234 -0.035183538 -0.0012738572 0.011591309
-0.01538493 -0.03932704 0.038900625 0.040525187 0.0018062333 -0.009694871 -0.005050858 -0.0420351
-0.01911061 -0.040257923 -0.021147065 -0.0047631077 -0.004006075 -0.017807787 -0.012762508 -0.02520708
-0.020280853 -0.019762158 -0.014298443 0.009083145 -0.0034813965 0.0019276034 0.04207559 0.020275027
0.008206558 -0.020839272 0.01174137 0.013906777 -0.0034925947 0.036321595 0.021872904 -0.00015352649
-0.046931557 -0.0053732577 -0.0016316595 -0.005279846 -0.008745503 -0.016102735 -0.009226092 0.008071739
-0.016130023 -0.0055968463 -0.016058406 -0.01545449 -0.020099571 -0.031614933 0.0017178796 0.023035482
-0.022089547 -0.025552664 -0.015226015 -0.025904149 0.015863407 0.0133963395 -0.014007301 -0.006340581
0.0039172736 -0.03938247 0.012226223 -0.03136991 -0.027966028 0.006732182 0.006325655 0.0030485734
-0.0027547956 -0.017809983 -0.02947254 0.024180004 0.05062015 -0.013661023 0.0018333793 0.03178684
0.025279835 0.006956376 0.016919611 0.0011653951 -0.008368689 0.014504041 -0.0053601163 -0.0030858107
-0.0319151 -0.012423856 -0.016522264 0.010053292 -0.009511699 -0.029272871 -0.04348644 -0.040129557
-0.021232268 0.010047072 -0.014086692 -0.054470576 -0.019372324 0.0008034624 -0.03592413 -0.051426627
-0.0065497276 -0.005775594 -0.006113974 0.0018617187 0.012943675 0.03109391 0.014746249 -0.0122887045
0.021950888 0.0181947 -0.012078188 0.008451852 0.04963443 0.036864296 -0.028162943 0.04752546
0.059026293 -0.025951456 -0.013146809 0.017474739 0.06587857 0.024360562 -0.0033780748 0.034592744
-0.009681658 -0.05056793 -0.026127279 0.0554462 0.024287479 0.03358962 0.02625315 -8.571058e-05
-0.024517406 -0.036015008 0.016971065 -0.020469636 -0.023389319 -0.028226864 -0.011575508 0.008803993
-0.009380599 -0.020057514 -0.015415753 0.03414584 0.0151458625 -0.039822824 -0.009173954 -0.028268598
0.014646679 -0.02194568 0.008845038 -0.008407334 0.035072457 0.021852976 -0.03584248 -0.0015283553
0.0065412726 -0.016055446 0.021524213 0.022231162 -0.03414735 -0.0009634816 0.01919895 0.025281634
-0.008022733 -0.0010691461 -0.017462267 0.02135775 -0.037899468 0.004716144 0.03017323 -0.0048403167
0.0041283863 0.032960806 0.008994561 -0.0042069196 -0.005105277 0.028952869 -0.047565755 -0.038837843
0.01514983 -0.015353468 -0.010913787 0.020120423 0.01713315 -0.024767205 -0.00034441747 -0.023447456
0.0011395629 -0.007414009 -0.007255039 -0.0014242184 -0.008889395 -0.006383411 0.0038494589 0.0016380677

fc.bias f4 [10]
00000000: ef8c b3bb cea5 f53c daba b43c 9f0c d8bc
00000010: 0341 af3c ad89 41bb 4b59 af3c 0cb0 65bc
00000020: 5465 acbc a30f 24bc
-0.005479447 0.029986288 0.022061754 -0.026373206 0.021393305 -0.0029531524 0.021404883 -0.014019024
-0.02104441 -0.010013494
