LeNet-PyTorch_initial/lenet.pth (torch, 121077 bytes, 14 tensors)

layer1.0.weight f4 [16, 1, 5, 5]
0.3940017 0.33613616 0.21517986 0.33986416 0.34702006 -0.12298419 -0.08833996 -0.11344624
-0.3800647 -0.36516953 -0.29013333 -0.6834414 -0.9055221 -0.36464703 -0.18004328 0.12948212
-0.29763067 -0.103083335 0.04479113 0.29998612 0.5238607 0.34844753 0.5386029 0.30686507
0.11980565 -0.6339101 -0.02408369 0.28584167 0.0889571 -0.24213819 -0.73858935 -0.14452755
0.19600719 -0.10141711 0.07644295 -0.64861465 0.13253313 0.22107196 0.13695459 0.31061432
-0.13786535 -0.031132065 0.33633068 0.07775878 -0.23303996 0.19360705 0.41532764 0.45128322
0.1639991 0.04374183 0.20743667 0.07666202 0.003423931 -0.15794177 -0.08232866 0.025771225
-0.26786068 -0.14543796 -0.12713705 -0.25590113 -0.25663754 0.048005242 -0.17867626 -0.2835422
-0.33693394 -0.14431071 -0.0050525214 -0.07189893 -0.34183717 -0.20627086 -0.21034266 -0.17030284
-0.2005126 0.01050652 0.21357906 -0.052220576 0.22905198 0.63603675 0.5092997 -0.1738203
-0.05384865 0.18925588 0.37558118 -0.07044215 -0.7177238 -0.11066233 0.13151066 0.42228836
-0.3631406 -0.80387723 -0.06885484 -0.11551407 -0.6626739 -0.76482654 -0.16295327 0.21068723
-0.009711115 -0.63399863 -0.63017154 0.32726553 0.13541257 0.17261232 0.24891882 0.12144317
-0.0021458822 0.032105587 0.33100963 0.07260419 -0.4941651 -0.9325821 0.28152615 0.11933374
-1.0215902 -1.0491791 -0.15276311 -0.17877392 -1.1649044 -0.66792136 0.2458671 0.47987902
-1.197433 -0.7267912 0.30347607 0.27582824 0.41392517 -0.08886786 -0.09956783 -0.047357727
-0.06850038 -0.6787916 -0.22617179 0.3907737 0.34172422 0.23466244 -0.41960263 0.12769765
0.10667495 0.067150496 0.24717298 -0.1801083 -0.026396208 0.0026508993 -0.1747912 0.6393254
-0.13999344 -0.21237251 0.35435218 -0.02060645 0.25077 0.50229454 -0.69196695 -0.2994042
0.30715877 0.15145004 -0.23192328 -0.62215656 0.24098074 0.53259873 -0.078818 -0.57353204
-0.38674468 0.47837582 0.4846814 -0.5197759 -0.07328607 -0.40131623 0.28450808 0.19032687
-0.34614426 0.14077094 -0.0247132 -0.05483667 0.25185928 0.029145367 0.0026408473 -0.16399218
-0.036654647 0.2647313 0.25709623 0.38325414 -0.63201326 -0.5594177 0.18284702 0.51570874
0.30864 -0.45111647 -1.2414263 -1.0395553 -0.25746083 0.294533 0.42449325 0.05087567
-0.8255716 -0.7427983 -0.08789275 0.26400888 0.3854895 0.023287095 -0.14789443 0.10403577
-0.26956242 -0.5439224 0.034933876 0.08896481 0.1615765 -0.008013396 0.51977575 0.67370635
0.45814842 0.18711622 0.25518194 0.28312668 0.38042024 -0.3489227 -0.36617252 -0.106696256
-0.053006545 -0.27568907 -0.6470244 -0.2576537 -0.08046543 -0.5464636 -0.55379 0.10203155
0.17589058 0.277758 -0.053081237 -0.17554432 0.023911102 0.21440424 -0.0048710145 -0.5074534
-0.8091272 -0.44498065 -0.35795736 0.15240441 0.12569572 0.21744135 0.05992659 -0.12988077
0.30094838 0.62045956 0.5940149 0.36321825 -0.3556402 -0.416898 -0.3600593 -0.15899292
0.22184367 0.24663666 0.3028069 0.03332639 -0.053356737 -0.037799064 0.26315892 0.22807111
00000000: 97ba c93e 0a1a ac3e 1c58 5c3e ad02 ae3e
00000010: 9dac b13e 23df fbbd 95eb b4bd 8156 e8bd
00000020: d797 c2be 80f7 babe 5b8c 94be 04f6 2ebf
00000030: 4cd0 67bf 04b3 babe 445d 38be f696 043e
00000040: 0c63 98be 5b1d d3bd e776 373d c897 993e
00000050: bc1b 063f b767 b23e e1e1 093f 6b1d 9d3e
00000060: aa5c f53d ef47 22bf 294b c5bc d759 923e
00000070: 242f b63d 13f3 77be 3114 3dbf 08ff 13be
00000080: 1cb6 483e c6b3 cfbd 1f8e 9c3d 9c0b 26bf
00000090: c4b6 073e b060 623e d33d 0c3e d708 9f3e
000000a0: 932c 0dbe ac08 ffbc 8933 ac3e ff3f 9f3d
000000b0: 07a2 6ebe ed40 463e d3a5 d43e 980e e73e
000000c0: 61ef 273e a22a 333d 476a 543e fa00 9d3d
000000d0: 0864 603b 7dbb 21be ee9b a8bd 2d1e d33c
000000e0: 0925 89be b0ed 14be 3730 02be 7905 83be
000000f0: ff65 83be 25a1 443d e9f6 36be 712c 91be
00000100: 9b82 acbe 30c6 13be 9f8f a5bb bf3f 93bd
00000110: 4805 afbe ab38 53be 1164 57be de63 2ebe
00000120: 2d53 4dbe 8a23 2c3c 78b4 5a3e 3ee5 55bd
00000130: 9a8c 6a3e 4ed3 223f 7761 023f f3fd 31be
00000140: 6790 5cbd 4bcc 413e 2d4c c03e f943 90bd
00000150: bfbc 37bf efa2 e2bd bbaa 063e 2e36 d83e
00000160: 91ed b9be e6ca 4dbf c403 8dbd a492 ecbd
00000170: ffa4 29bf accb 43bf 39dd 26be 65be 573e
00000180: 5e1b 1fbc bc4d 22bf ec52 21bf 598f a73e
00000190: 98a9 0a3e 49c1 303e 93e4 7e3e 32b7 f83d
000001a0: eea1 0cbb 2681 033d 187a a93e 81b1 943d
000001b0: 3503 fdbe b3bd 6ebf 3224 903e 3f65 f43d
000001c0: 78c3 82bf 804b 86bf ef6d 1cbe 8310 37be
000001d0: 961b 95bf e5fc 2abf 96c4 7b3e b4b2 f53e
000001e0: 7c45 99bf fd0e 3abf 3761 9b3e 5c39 8d3e
000001f0: 00ee d33e 5a00 b6bd 38ea cbbd 2dfa 41bd
00000200: ed49 8cbd 49c5 2dbf 9499 67be 7e13 c83e
00000210: 7af6 ae3e 5a4b 703e 28d6 d6be 2cc3 023e
00000220: 6578 da3d 3386 893d ea1a 7d3e 4f6e 38be
00000230: dc3c d8bc b6ba 2d3b 77fc 32be d4aa 233f
00000240: 715a 0fbe 2e78 59be a66d b53e dcce a8bc
00000250: ed64 803e 6096 003f bf24 31bf 824b 99be
00000260: ea43 9d3e b815 1b3e 4c7d 6dbe a745 1fbf
00000270: a8c3 763e 6458 083f 556b a1bd ffd2 12bf
00000280: 6603 c6be aded f43e 2928 f83e 0910 05bf
00000290: 0217 96bd 5279 cdbe 0bab 913e 0ce5 423e
000002a0: d239 b1be 4226 103e 5673 cabc 6b9c 60bd
000002b0: b3f3 803e 44c2 ee3c 1112 2d3b 91ed 27be
000002c0: 2f23 16bd dc8a 873e 1ea2 833e e339 c43e
000002d0: 9fcb 21bf 0036 0fbf 403c 3b3e 7d05 043f
000002e0: 1006 9e3e bdf8 e6be 0fe7 9ebf 2610 85bf
000002f0: e8d1 83be 08cd 963e 2e57 d93e 0263 503d
00000300: a958 53bf 0828 3ebf 1d01 b4bd 2c2c 873e
00000310: e15e c53e 94c4 be3c a371 17be b510 d53d
00000320: 1604 8abe 803e 0bbf d316 0f3d 2f33 b63d
00000330: 4f74 253e 9e4a 03bc 0610 053f 0578 2c3f
00000340: 6e92 ea3e 659b 3f3e 35a7 823e fbf5 903e
00000350: 71c6 c23e ffa5 b2be f77a bbbe 9183 dabd
00000360: 641d 59bd 1e27 8dbe 64a3 25bf 30eb 83be
00000370: 0fcb a4bd 0ae5 0bbf 2ec5 0dbf ebf5 d03d
00000380: a91c 343e 4c36 8e3e b66b 59bd e4c1 33be
00000390: 37e1 c33c c98c 5b3e 089d 9fbb 77e8 01bf
000003a0: f622 4fbf 81d4 e3be 3046 b7be e70f 1c3e
000003b0: 61b6 003e f2a8 5e3e 9675 753d 77ff 04be
000003c0: e815 9a3e 70d6 1e3f 5c11 183f bef7 b93e
000003d0: 7916 b6be a873 d5be b159 b8be 0acf 22be
000003e0: fd2a 633e 528e 7c3e 8209 9b3e 4181 083d
000003f0: 988c 5abd 31d3 1abd c4bc 863e 798b 693e

layer1.0.bias f4 [16]
-0.038012464 -0.4229322 -0.111405306 -0.06206813 -0.4366296 -0.11911516 -0.30060318 0.032553505
-0.17611074 -0.07586607 -0.5682764 -0.26388404 -0.0494921 -0.4748998 -0.13806598 0.060760334
00000000: f5b2 1bbd 928a d8be 7728 e4bd 273b 7ebd
00000010: ea8d dfbe a6f2 f3bd a9e8 99be d356 053d
00000020: 6056 34be ac5f 9bbd 907a 11bf cf1b 87be
00000030: 3ab8 4abd 1126 f3be 2b61 0dbe d4df 783d

layer1.1.weight f4 [16]
0.83966523 0.61473924 0.82568204 0.7109975 1.1822335 0.62525797 0.93912774 1.0107529
0.8390554 0.8232739 0.5046692 0.8760423 0.912339 0.8957869 0.5446227 0.92462945
00000000: 4df4 563f 8d5f 1d3f e65f 533f ef03 363f
00000010: 6d53 973f e810 203f ad6a 703f 5a60 813f
00000020: 56cc 563f 14c2 523f 0032 013f 4f44 603f
00000030: 0c8f 693f 4a52 653f 656c 0b3f 84b4 6c3f

layer1.1.bias f4 [16]
-0.40151894 -0.47079092 -0.14427403 -0.24495709 -0.20303747 -0.26166323 -0.26865903 -0.089764744
-0.16793166 -0.16732395 -0.5244162 -0.36962622 -0.2429077 -0.45745012 -0.5020928 -0.16183648
00000000: e493 cdbe 820b f1be 92bc 13be 08d6 7abe
00000010: 0ee9 4fbe b9f8 85be ad8d 89be 94d6 b7bd
00000020: 47f6 2bbe f856 2bbe 2440 06bf a63f bdbe
00000030: ccbc 78be e736 eabe 2789 00bf 76b8 25be

layer1.1.running_mean f4 [16]
0.26541698 -0.00731573 -0.36055154 0.058453627 -0.37760314 0.38761976 -0.26195422 0.035905175
-0.09853306 0.15217829 0.16445947 0.06616997 0.10181379 -0.13422981 0.4766477 0.028989833
00000000: bce4 873e cbb8 efbb 369a b8be 126d 6f3d
00000010: 3355 c1be 1976 c63e dd1e 86be 4e11 133d
00000020: b3cb c9bd a0d4 1b3e 1068 283e 1f84 873d
00000030: c083 d03d 8a73 09be 2b0b f43e 167c ed3c

layer1.1.running_var f4 [16]
0.09238632 0.11237918 0.3146905 0.20927094 0.18415096 0.099063635 0.06738703 0.085528836
0.06170184 0.05432609 0.09971691 0.24215281 0.032896377 0.15317136 0.09062998 0.096535236
00000000: 0a35 bd3d 0e27 e63d 1d1f a13e 1f4b 563e
00000010: 1292 3c3e e0e1 ca3d 3602 8a3d be29 af3d
00000020: 12bb 7c3d 0985 5e3d 6138 cc3d e8f6 773e
00000030: 5abe 063d f4d8 1c3e 369c b93d 44b4 c53d

layer2.0.weight f4 [32, 16, 5, 5]
0.008874953 -0.26055047 -0.4597891 -0.43057752 -0.281067 0.14387804 0.50874114 0.46869627
0.39847922 0.20156083 0.18447332 0.16741966 0.13780412 0.2876216 0.4199861 -0.54263735
-0.36387733 0.021398343 0.24415433 -0.45652428 -0.22001618 -0.05322155 0.24579489 0.07851605
-0.19846545 -0.118263915 0.15486315 0.016828211 -0.17154834 -0.06628818 -1.0071455 -0.40112874
-0.7079987 -0.46323317 -0.31205088 -0.35748896 -0.28703368 -0.30052143 0.039955266 -0.049524922
-0.23565955 -0.34119928 -0.0667083 0.37019593 -0.00091368 0.036780775 0.07754219 0.18246879
0.26252285 -0.27417865 -0.32313484 -0.14381672 -0.11641388 -0.15989447 -0.16656989 -0.07180152
-0.04178619 0.09776669 -0.035523962 0.036248546 -0.22128585 -0.21543899 0.034872282 -0.23799306
-0.13729483 -0.06508526 0.07847979 0.3280596 0.0131741855 0.16128348 0.035927393 0.16871567
-0.06296861 -0.021650499 0.0295462 0.121553406 0.3270016 0.025019832 -0.088315405 0.4052708
0.37267375 0.3695226 0.21721938 -0.0169176 0.3806454 -0.39186066 -0.21818179 -0.24514152
-0.30126572 -0.6159077 -0.49793878 -0.25657687 -0.051673144 -0.08177083 -0.585951 0.07740709
-0.049576055 -0.10675415 -0.3796345 -0.4645484 -0.92340875 -0.0759395 0.3052059 0.14080065
-0.11070676 -0.34825888 0.058042035 0.39648342 -0.040148646 -0.07987077 -0.3756382 -0.48524883
0.72607136 0.7091435 0.109392025 -0.72552097 -0.0853763 0.4092643 -0.082653776 -0.57738495
0.44260138 0.34030625 0.17542225 -0.82880205 -0.90890706 -0.21864767 0.032255482 0.04619969
0.056390133 -0.120351076 -0.4309017 -0.38027802 -0.5113204 -0.32221526 -0.19632258 -0.14188327
-0.4656878 -0.24260226 0.09802952 0.16898619 -0.1407464 -0.40758392 -0.035538565 0.36571968
0.4355672 -0.034458593 -0.08949399 0.082321264 -0.001979213 0.20864129 -0.36890364 0.44509315
-0.13808417 -0.21972077 0.0357967 -0.3645323 -0.29387805 -0.3059852 -0.53950375 -0.3582562
-0.27845365 -0.69890934 -0.39495018 -0.23660259 -0.3473169 0.1165741 -0.17461579 0.1648267
0.23031253 -0.035968512 0.38623625 -0.1557418 0.04662526 0.1575592 -0.6308516 -0.25125948
-0.13891767 -0.24480264 -0.06764369 0.18928473 0.22317053 0.06523191 -0.11325884 0.17474312
-0.071583815 -0.035297584 -0.32186168 -0.68315893 -0.5126945 -0.27726293 -0.29843238 -1.0190165
0.023016995 0.22943708 -0.11303081 -0.41941413 -0.48423645 0.12028218 0.3103103 0.18686047
0.25390452 0.2421826 0.28567192 0.24262837 0.20666672 0.21846335 0.27363998 0.38832453
0.21655233 0.47892773 -1.3090196 -0.7008607 -0.32414728 -0.40378594 -0.62563545 -0.77386737
-0.5155374 -0.20340638 -0.11173674 -0.27731574 0.10753799 -0.16239719 -0.2809974 0.04006378
-0.34511298 0.70461184 0.058405556 -0.121282965 -0.122217484 -0.16115935 -0.18105383 -0.59328717
-0.24619617 -0.2264853 0.08430644 -0.2856589 -0.16736534 -0.16266477 0.66281897 0.3856348
-0.18010679 -0.2862014 -0.20201764 0.16590114 0.3218356 -0.02662883 -0.25613979 -0.1412378
0.38352555 0.23186725 0.142388 -0.020149294 0.05939502 -0.0071119415 0.04392832 0.09902214
00000000: 4068 113c df66 85be 7a69 ebbe a874 dcbe
00000010: 04e8 8fbe c454 133e dc3c 023f f5f8 ef3e
00000020: 7805 cc3e f665 4e3e 93e6 3c3e 0f70 2b3e
00000030: 861c 0d3e 2343 933e 6b08 d73e 48ea 0abf
00000040: 214e babe 944b af3c 9803 7a3e 8dbd e9be
00000050: ec4b 61be d7fe 59bd a8b1 7b3e 06cd a03d
00000060: 873a 4bbe 5a34 f2bd 7294 1e3e 51db 893c
00000070: 5eaa 2fbe 19c2 87bd 25ea 80bf bf60 cdbe
00000080: 673f 35bf e62c edbe 22c5 9fbe cb08 b7be
00000090: 14f6 92be f2dd 99be 22a8 233d a5da 4abd
000000a0: bd50 71be acb1 aebe 5c9e 88bd 528a bd3e
000000b0: 0784 6fba 70a7 163d 71ce 9e3d 19d9 3a3e
000000c0: 6569 863e 2561 8cbe ee71 a5be b144 13be
000000d0: 666a eebd 60bb 23be 4c91 2abe ad0c 93bd
000000e0: ff27 2bbd e739 c83d 9381 11bd 5b79 143d
000000f0: c298 62be 0a9c 5cbe 3dd6 0e3d 74b4 73be
00000100: 0497 0cbe 6c4b 85bd 03ba a03d 6ef7 a73e
00000110: 8ad8 573c 7f27 253e 9a28 133d cdc3 2c3e
00000120: b0f5 80bd 635c b1bc df0a f23c fef0 f83d
00000130: c16c a73e 64f6 cc3c b5de b4bd a87f cf3e
00000140: 18cf be3e 1132 bd3e c26e 5e3e c796 8abc
00000150: f4e3 c23e f6a1 c8be 0c6b 5fbe 6106 7bbe
00000160: 803f 9abe 21ac 1dbf d5f1 febe 0b5e 83be
00000170: 38a7 53bd 7777 a7bd e200 16bf 9c87 9e3d
00000180: 4310 4bbd eba1 dabd 745f c2be 4ad9 edbe
00000190: 8464 6cbf 2b86 9bbd f343 9c3e 0c2e 103e
000001a0: 3aba e2bd fd4e b2be 7cbd 6d3d e0ff ca3e
000001b0: e872 24bd 4993 a3bd a653 c0be 8972 f8be
000001c0: d0df 393f 6e8a 353f ed08 e03d bebb 39bf
000001d0: c5d9 aebd 178b d13e 6246 a9bd 80cf 13bf
000001e0: a69c e23e 9f3c ae3e e4a1 333e 5f2c 54bf
000001f0: 22ae 68bf 2de5 5fbe 531e 043d e33b 3d3d
00000200: 57f9 663d a07a f6bd 269f dcbe cdb3 c2be
00000210: e5e5 02bf 66f9 a4be c908 49be d949 11be
00000220: a26e eebe ba6c 78be b3c3 c83d b70a 2d3e
00000230: d31f 10be d7ae d0be e390 11bd 9c3f bb3e
00000240: aa02 df3e 7424 0dbd a048 b7bd 0d98 a83d
00000250: afb5 01bb 10a6 553e f0e0 bcbe 40e3 e33e
00000260: f065 0dbe 7bfe 60be 8f9f 123d faa3 babe
00000270: 2f77 96be 18aa 9cbe eb1c 0abf 5b6d b7be
00000280: 7a91 8ebe b9eb 32bf e936 cabe f347 72be
00000290: 85d3 b1be 67be ee3d 7bce 32be 55c8 283e
000002a0: 0cd7 6b3e b853 13bd c2c0 c53e c77a 1fbe
000002b0: 21fa 3e3d 3357 213e 7e7f 21bf 15a5 80be
000002c0: 6f40 0ebe 8bad 7abe c688 8abd dbd3 413e
000002d0: d186 643e 4f98 853d 40f4 e7bd dcef 323e
000002e0: 899a 92bd 3394 10bd 0ecb a4be 81e3 2ebf
000002f0: f23f 03bf 68f5 8dbe 21cc 98be 226f 82bf
00000300: 238e bc3c 8ef1 6a3e b37c e7bd 73bd d6be
00000310: d7ed f7be 8156 f63d fee0 9e3e 5a58 3f3e
00000320: c6ff 813e b7fe 773e 9743 923e 9273 783e
00000330: 71a0 533e dbb4 5f3e 8a1a 8c3e 79d2 c63e
00000340: e5bf 5d3e 0436 f53e f48d a7bf 9b6b 33bf
00000350: a2f6 a5be 08bd cebe a529 20bf 2c1c 46bf
00000360: 42fa 03bf c349 50be 3bd6 e4bd 54fc 8dbe
00000370: e13c dc3d 734b 26be e4de 8fbe eb19 243d
00000380: a6b2 b0be 7161 343f aa3a 6f3d 3463 f8bd
00000390: 294d fabd f506 25be 2d66 39be abe1 17bf
000003a0: d91a 7cbe c3eb 67be dba8 ac3d e241 92be
000003b0: d261 2bbe 9891 26be 81ae 293f ed71 c53e
000003c0: ea6d 38be fd88 92be b6dd 4ebe fde1 293e
000003d0: a3c7 a43e b424 dabc c124 83be a4a0 10be
000003e0: 765d c43e 9c6e 6d3e 29ce 113e 2210 a5bc
000003f0: 3148 733d 4a0b e9bb 2fee 333d 1fcc ca3d

layer2.0.bias f4 [32]
-0.5549094 -0.29410124 -0.20850992 -0.35498124 -0.23180062 -0.53027064 -0.12975584 -0.4552243
-0.30149397 -0.30366236 -0.4631045 -0.12172539 0.07065294 -0.8439165 -0.30250925 -0.29687458
-0.003196001 -0.28020716 -0.6312886 0.044316355 -0.0823559 -0.36071673 -0.43626818 -0.2227617
-0.3310377 -0.6471965 0.006433204 -0.72014815 -0.21179624 -0.3555531 -0.27236727 -0.48586243
00000000: 8b0e 0ebf 7094 96be a083 55be 1ac0 b5be
00000010: 245d 6dbe d1bf 07bf b7de 04be 2913 e9be
00000020: 6b5d 9abe a279 9bbe 081c edbe 294b f9bd
00000030: 7db2 903d e90a 58bf 7ee2 9abe f2ff 97be
00000040: 0074 51bb 5077 8fbe 219c 21bf 1185 353d
00000050: 36aa a8bd ddaf b8be 8b5e dfbe a51b 64be
00000060: c67d a9be abae 25bf a0cd d23b a15b 38bf
00000070: 1de1 58be 0e0b b6be b973 8bbe f6c2 f8be

layer2.1.weight f4 [32]
0.7075118 0.53623784 0.6956187 0.75537974 0.7658035 0.7420308 0.5456519 0.798532
0.839328 0.8020028 0.70496327 0.7645848 0.80651236 0.61099654 0.91721815 0.7673508
0.6783297 0.54746556 0.7065109 0.86134166 0.8216571 0.6191996 0.8695635 0.74426204
0.64585274 0.6482775 0.51513636 0.89476484 0.61723334 0.71624726 0.7860333 0.70317835
00000000: 7e1f 353f e246 093f 1114 323f 9160 413f
00000010: b30b 443f bbf5 3d3f d8af 0b3f 986c 4c3f
00000020: 33de 563f 0e50 4d3f 7978 343f d4bb 433f
00000030: 9877 4e3f 456a 1c3f cfce 6a3f 1a71 443f
00000040: 04a7 2d3f b426 0c3f e6dd 343f e380 5c3f
00000050: 1f58 523f dd83 1e3f b79b 5e3f f587 3e3f
00000060: 9b56 253f 84f5 253f fadf 033f 4f0f 653f
00000070: 0103 1e3f fb5b 373f 7a39 493f 7f03 343f

layer2.1.bias f4 [32]
-0.3963718 -0.23535247 -0.32550573 -0.26685426 -0.34313646 -0.27246916 -0.2803062 -0.3034864
-0.20211942 -0.2860792 -0.31844527 -0.24151646 -0.15226564 -0.4308101 -0.23668271 -0.27738342
-0.12956287 -0.29330254 -0.29931715 -0.26464343 -0.15415256 -0.24257922 -0.22073838 -0.28758213
-0.2921374 -0.34693056 -0.17833924 -0.36172524 -0.28897366 -0.20832986 -0.26442608 -0.24643677
00000000: 3ff1 cabe 3d00 71be b0a8 a6be 1fa1 88be
00000010: 95af afbe 1481 8bbe 4b84 8fbe 9262 9bbe
00000020: 65f8 4ebe f978 92be 420b a3be 1750 77be
00000030: 86eb 1bbe 2493 dcbe f45c 72be 3305 8ebe
00000040: 21ac 04be c02b 96be 1940 99be 587f 87be
00000050: 2bda 1dbe b066 78be 3e09 62be f73d 93be
00000060: 0993 95be e2a0 b1be 909e 36be 0d34 b9be
00000070: 5bf4 93be 6c54 55be db62 87be ec59 7cbe

layer2.1.running_mean f4 [32]
-0.0822938 0.6833722 -2.2225692 -0.09988609 3.5739431 -1.5353253 0.2119552 -4.059884
-0.58056957 -1.935887 -3.6846738 1.9646039 -0.15309213 -6.6558304 -0.013162153 -0.5221121
-0.043538757 -0.38800186 -1.6685691 -0.8552305 -0.060464136 2.3072197 -0.41625887 -0.3965459
-0.80002594 -3.043502 -0.11937721 0.049952928 -0.23634374 0.7231053 0.98749316 0.07299684
00000000: a789 a8bd 7bf1 2e3f 933e 0ec0 1491 ccbd
00000010: 7cbb 6440 8a85 c4bf c90a 593e 92ea 81c0
00000020: 35a0 14bf 25cb f7bf b2d1 6bc0 2478 fb3f
00000030: 2fc4 1cbe 90fc d4c0 12a6 57bc 23a9 05bf
00000040: b255 32bd 2ea8 c6be ac93 d5bf 63f0 5abf
00000050: 3ea9 77bd 7da9 1340 e21f d5be 1008 cbbe
00000060: 80ce 4cbf bdc8 42c0 0a7c f4bd 719b 4c3d
00000070: 1804 72be 6e1d 393f 5acc 7c3f 5e7f 953d

layer2.1.running_var f4 [32]
12.723211 15.851503 21.471151 11.483651 14.676978 13.759655 11.697018 26.41856
18.992105 23.59417 26.089622 20.189596 14.339009 36.72521 11.076931 18.442102
9.45131 5.280171 14.515223 17.252983 13.480672 9.761366 16.1344 10.440555
3.1867788 20.671114 8.8983135 16.356833 10.007695 12.670477 7.760376 8.836805
00000000: 4692 4b41 c29f 7d41 ebc4 ab41 09bd 3741
00000010: e7d4 6a41 8c27 5c41 fc26 3b41 3659 d341
00000020: d5ef 9741 dcc0 bc41 8cb7 d041 4b84 a141
00000030: 956c 6541 9de6 1242 1c3b 3141 6d89 9341
00000040: 9138 1741 29f7 a840 5a3e 6841 1c06 8a41
00000050: d5b0 5741 8e2e 1c41 4013 8141 830c 2741
00000060: 2ff4 4b40 715e a541 7e5f 0e41 cbda 8241
00000070: 851f 2041 46ba 4a41 0055 f840 8e63 0d41

fc.weight f4 [10, 1568]
-0.010708758 0.018593151 -0.010636421 0.04273556 -0.05394228 0.01075523 -0.00034480757 -0.0024646593
0.033794373 0.077721 0.35038528 -0.092183806 -0.033254568 -0.031046318 -0.023329899 -0.040875796
0.08266481 0.094654 0.3388512 0.009795441 -0.046056487 0.027587643 -0.1988072 -0.58137375
-0.7018767 -0.4363564 -0.23655795 -0.058603555 -0.09643717 -0.2820806 -0.7017449 -0.32492134
-0.58983207 -0.010588445 0.042285636 -0.040176902 -0.07550032 0.100469224 0.72864854 0.3860525
0.11795334 0.059313804 0.0057035424 0.037173312 -0.014183582 0.1289204 0.19618276 0.07938522
-0.025653934 0.0306594 0.015573158 0.032377854 0.0107956035 -0.0044354317 0.04369028 0.028931519
-0.021714179 -0.006748872 -0.23495178 0.19820713 -0.015087831 0.04565569 0.020042714 -0.02586318
-0.09208921 -0.38900536 -0.42487273 -0.33179197 -0.10021988 -0.09188077 -0.039094444 -0.2196073
-0.9043944 -0.35155484 -0.13231954 -0.0059582684 -0.047961235 -0.01349652 -0.10708116 -0.29409224
0.013935954 0.20573626 -0.0037068767 -0.048414666 -0.0069689485 -0.004988692 0.15477036 0.26624218
0.2682604 0.007175044 -0.022444308 -0.00547018 0.061509654 0.08583953 0.11459027 7.485445e-05
-0.054976355 0.025671385 0.027642233 0.031480864 -0.000843876 -0.016332868 -0.031861093 -0.019761458
0.025245847 0.012150911 -0.0059975414 -0.013837905 0.075861864 -0.06387306 -0.045594238 -0.024610208
0.025845846 -0.03215328 0.10800498 0.25380263 -0.2750966 0.17328171 -0.037177786 0.011528629
-0.028528728 0.277025 0.27804935 0.3134719 -0.00043528073 -0.055164102 0.013494858 -0.037887674
-0.11759218 -0.616933 -0.24779446 0.08430014 -0.029739821 -0.019425413 0.038008943 -0.040209923
-0.3230252 -0.018966187 -0.004434438 -0.015464623 -0.0043577366 0.030748157 -0.009748666 -0.00287514
0.08915278 0.05174161 0.016653998 0.01898753 -0.16784967 -0.04551291 0.0006835668 0.066295624
0.04828455 -0.041758228 0.026250402 0.21867552 0.015930567 0.034833666 0.1128801 0.08695274
0.08475373 -0.14303976 -0.39377284 -0.20535165 -0.054440405 -0.034978442 0.014764252 0.039867744
-0.22094606 0.012694117 0.09474286 -0.01139245 -0.22277233 -0.10122847 0.082366906 -0.5622962
-0.16876347 0.05399016 0.07466977 -0.09164225 -0.011761939 0.017878335 -0.26706105 -0.12838201
0.092777714 0.0023826556 -0.104898855 0.048517648 0.05394332 0.19772333 0.7417496 0.36750206
-0.024131889 -0.2274772 0.022060208 0.04956167 -0.04763158 -0.013819888 0.01573502 0.000696796
0.023909062 0.03805816 0.017473774 -0.021638958 0.020350771 -0.040624864 0.059701443 0.05917097
-0.020365965 0.07699604 -0.04582897 -0.17168498 -0.2353534 -0.034668855 -0.036917076 0.052472826
0.034327976 -0.111125536 -0.39022148 0.031834055 0.11404169 -0.13002433 -0.015518137 0.06785644
0.0316825 -0.13265266 0.21297462 0.1766794 -0.09603764 -0.040004123 0.099165775 -0.03319995
0.10460669 0.40533787 -0.26068398 -0.25347158 -0.06461534 -0.01565018 -0.04223482 0.087960824
-0.000835358 -0.3536143 -0.1849624 -0.06002082 -0.08504801 -0.012450094 0.030766204 0.016766002
0.022124726 0.01987928 0.008560064 0.0047663944 -0.0010913076 -0.00054558436 0.06323004 0.08692387
00000000: c973 2fbc aa50 983c 6244 2ebc 7c0b 2f3d
00000010: 95f2 5cbd b436 303c 4ac7 b4b9 1f86 21bb
00000020: f86b 0a3d 302c 9f3d b365 b33e ddca bcbd
00000030: f135 08bd d954 febc 581e bfbc 616d 27bd
00000040: 2b4c a93d f5d9 c13d e87d ad3e 0f7d 203c
00000050: baa5 3cbd 7bff e13c 1d94 4bbe e9d4 14bf
00000060: 31ae 33bf 1b6a dfbe 3f3c 72be 480a 70bd
00000070: da80 c5bd de6c 90be 8ea5 33bf 175c a6be
00000080: 3cff 16bf 287b 2dbc b433 2d3d 8990 24bd
00000090: e99f 9abd cfc2 cd3d b688 3a3f aca8 c53e
000000a0: 8591 f13d 08f3 723d c8e4 ba3b 0b43 183d
000000b0: 4162 68bc b603 043e 22e4 483e b894 a23d
000000c0: 3328 d2bc 6c29 fb3c 8f26 7f3c a49e 043d
000000d0: 0be0 303c 1957 91bb 94f4 323d cb01 ed3c
000000e0: efe1 b1bc a425 ddbb 3397 70be cff6 4a3e
000000f0: f332 77bc 7601 3b3d 9e30 a43c 05df d3bc
00000100: 4599 bcbd b62b c7be eb88 d9be a3e0 a9be
00000110: 1540 cdbd fc2b bcbd 7f21 20bd bce0 60be
00000120: 6486 67bf fffe b3be c67e 07be 943d c3bb
00000130: 0073 44bd 8220 5dbc 5e4d dbbd 4293 96be
00000140: a153 643c 87ac 523e 12ef 72bb 754e 46bd
00000150: c75b e4bb 2e78 a3bb 1f7c 1e3e e550 883e
00000160: 6d59 893e a21c eb3b 20dd b7bc 323f b3bb
00000170: 8cf1 7b3d a3cc af3d 4eae ea3d 2dfb 9c38
00000180: e32e 61bd cc4c d23c f771 e23c 14f2 003d
00000190: 8f37 5dba 82cc 85bc c780 02bd c8e2 a1bc
000001a0: 61d0 ce3c 9d14 473c 0687 c4bb 61b8 62bc
000001b0: 775d 9b3d e1cf 82bd 06c1 3abd 599b c9bc
000001c0: abba d33c 28b3 03bd b731 dd3d 6bf2 813e
000001d0: 76d9 8cbe c370 313e bc47 18bd 93e2 3c3c
000001e0: 14b5 e9bc 39d6 8d3e 7c5c 8e3e 647f a03e
000001f0: 6436 e4b9 c1f3 61bd 8919 5d3c 1b30 1bbd
00000200: 2bd4 f0bd 52ef 1dbf d5bd 7dbe 8da5 ac3d
00000210: eda0 f3bc 0b22 9fbc 44af 1b3d 29b3 24bd
00000220: 8f63 a5be fa5e 9bbc c34e 91bb 555f 7dbc
00000230: 58cb 8ebb 8fe3 fb3c deb8 1fbc d86c 3cbb
00000240: bc95 b63d 03ef 533d f76d 883c bd8b 9b3c
00000250: c9e0 2bbe bf6b 3abd 6431 333a 00c6 873d
00000260: 05c6 453d ad0a 2bbd 150b d73c 7aec 5f3e
00000270: d280 823c bfad 0e3d af2d e73d 4714 b23d
00000280: 5d93 ad3d 0479 12be 989c c9be b447 52be
00000290: e7fc 5ebd 8e45 0fbd c3e5 713c 5c4c 233d
000002a0: af3f 62be fcfa 4f3c 8b08 c23d 66a7 3abc
000002b0: 6e1e 64be df50 cfbd fbaf a83d a5f2 0fbf
000002c0: 55d0 2cbe c924 5d3d 77ec 983d efae bbbd
000002d0: 26b5 40bc 9675 923c 3abc 88be 9376 03be
000002e0: 3e02 be3d 5426 1c3b 36d5 d6bd 71ba 463d
000002f0: acf3 5c3d fc77 4a3e 4de3 3d3f 3b29 bc3e
00000300: 3db0 c5bc c8ef 68be 9cb7 b43c 2d01 4b3d
00000310: 5519 43bd d06c 62bc bbe6 803c 30a9 363a
00000320: f0dc c33c e0e2 1b3d 2925 8f3c 2f44 b1bc
00000330: a9b6 a63c 4266 26bd 8089 743d 425d 723d
00000340: 86d6 a6bc 1ab0 9d3d 28b7 3bbd 30ce 2fbe
00000350: 7b00 71be ee00 0ebd 5c36 17bd bfed 563d
00000360: 7e9b 0c3d c995 e3bd 1ccb c7be 6d64 023d
00000370: b18e e93d 1925 05be c93f 7ebc 51f8 8a3d
00000380: 82c5 013d 19d6 07be 0516 5a3e 72eb 343e
00000390: 62af c4bd 5ddb 23bd 6d17 cb3d acfc 07bd
000003a0: 083c d63d 7288 cf3e 5f78 85be 07c7 81be
000003b0: 0c55 84bd ce34 80bc 6bfe 2cbd ce24 b43d
000003c0: edfb 5aba ef0c b5be c966 3dbe 64d8 75bd
000003d0: a72d aebd 7bfb 4bbc 6809 fc3c db58 893c
000003e0: ea3e b53c dfd9 a23c 833f 0c3c 6a2f 9c3b
000003f0: 350a 8fba 8c05 0fba c07e 813d 2405 b23d

fc.bias f4 [10]
0.02731931 0.050983354 -0.0500529 -0.032585945 0.03385161 -0.007422032 0.010999098 0.014863787
0.07027437 -0.0017938175
00000000: bfcc df3c ecd3 503d 4504 4dbd d778 05bd
00000010: fca7 0a3d 8434 f3bb 9035 343c 3e87 733c
00000020: 02ec 8f3d 871e ebba
