LeNet-PyTorch_initial/lenetAdam2.pth (torch, 121077 bytes, 14 tensors)

layer1.0.weight f4 [16, 1, 5, 5]
00000000: a8f3 233d 475f aabc 3424 c2bc 48c6 3bbe
00000010: aaa1 05be 3aa4 b6bd c0c7 c3bd c1eb 4ebe
00000020: f70f 373e 8645 0d3e 3c5d 463e 05bc 0dbe
00000030: c634 3f3e 6b8c 873d e5f6 e8bd 919d 8ebc
00000040: d767 573d f75f 7fbe 6b9c d2bd e34f 3b3e
00000050: 0b74 81be ebb2 a8bd 434b 35be 43db fb3d
00000060: 1897 363e d8f5 30be fad0 10bd 7565 43bd
00000070: 14e4 00be c66d 083e 8b2e b93c 30ca 74be
00000080: b11b 19be 6914 5f3d da19 6b3d 2e9e 3cbe
00000090: 7c23 0fbe 5f37 983d e6ec 1d3e 55ca e03d
000000a0: 18a5 20be 5812 433d a237 003e 7365 563e
000000b0: 5042 053e 4ae2 003e a5d4 433c 9857 2b3e
000000c0: 69b1 00be 19d7 b4bb 7dca 36bd db6a 573b
000000d0: 1b0c 35be c29b 96be 3bf8 cabd 4929 10bd
000000e0: 44c8 60be ba9e 5cbe c7de 953d ae54 433e
000000f0: 7e0f f1bd c479 47be 0c32 bc3d dbe4 163d
00000100: 4e13 1c3e 8bb3 11be 9b1b 26be be73 033e
00000110: ac0b 53bd d7ea fc3d 76ab 8bbd 3770 1e3d
00000120: ee71 0b3e 037b afbd 6eb0 d93d 6472 903d
00000130: fe82 bbbb f5f3 423e 9741 3fbe af1d e1bc
00000140: c4e6 3b3d d6cd bb3d d1ff 1a3e f533 26be
00000150: 0123 49bd ca8e df3d 6684 bc3c 6ac7 67bd
00000160: 085e 943d 192f 9abe c110 013e eb3a 98bb
00000170: 1a11 2b3e ecee 2ebe 52dd 18be 8a23 553d
00000180: 4fd8 323e 5fa9 31be 3bd9 e4bd 2fbf 76be
00000190: beac 4a3e 54e4 803d 046e f9bd 6e7c 243e
000001a0: a9ad 113e e4b8 a43d 941f 2ebe cc87 37be
000001b0: ab69 22be e0d9 3dbe 8c39 46be 719b 4ebe
000001c0: d74e cd3d 801d 9ebd 5f1b 593d 1cb6 37be
000001d0: 8068 223d eb27 1e3d 20c9 c53d e687 46bd
000001e0: 0c6d 233e 193f 833e 0dbb 073d 84b1 3a3c
000001f0: 8db7 a53b cc1e 623e 5080 6dbd 447b 6f3e
00000200: 74d1 243e b561 713e 23cb f1bd d9c6 1cbe
00000210: a28e c8bd 1a77 9dbd 8339 3ebe 7ba8 c93d
00000220: 9968 c13d 8032 6f37 f6fd eabc e5a0 39be
00000230: acdb 68be 358c 80bd c0fd a3bc 5b61 7ebe
00000240: d976 b9bd 0c76 95bd 1b54 67be e16f 06be
00000250: 2198 0bbe 213c 2c3e 2b4e 07bd 57ac 26be
00000260: d727 4f3e 30df 513e 857e 19be f367 06be
00000270: 3c5e 50be 7aab 2abe 6dcb 933b 8cd5 f43d
00000280: ce18 5d3e 676a 02bd 587d 5cbd ead4 ac3d
00000290: 5042 7b3b b23c 553e 60ee 6f3d a082 2abe
000002a0: 13a8 c8bc e663 1e3d 2064 04be 690d 5b3d
000002b0: 4c55 1a3d ef7f d9bd c5ab 44bc 3813 393e
000002c0: 4c93 333b 9e85 0b3e 62fe 21be 67bb 633e
000002d0: e1d2 323d fd84 a03d fe36 6f3e 42dd d63d
000002e0: 095d 133e aedd 42be ff6a 353d ee70 20be
000002f0: f026 83bd 29ee 363d ca58 81be 93da d33a
00000300: 8f0f 26be 6372 36be be13 a8bd fe77 cabd
00000310: 3562 5d3c 1681 9a3d fe45 1cbe bbcb 3dbe
00000320: 162c f83d fa70 01be 3c7e c6bd 095c f13c
00000330: 8cc6 a83c 33e6 8fbe 9e46 433e 0fc3 aa3d
00000340: 6148 113e b457 b53d 41ff 363d a7fe 4cbd
00000350: b27a 2f3d ae0c 183e 1d46 493e dc08 ce3d
00000360: 3147 543e ecea 1ebe 75b8 3a3c 8a69 29be
00000370: d5c3 2f3c 2733 24bc e9e5 8bbe a35c f9bd
00000380: d0a9 43be 322b 13bd e027 78be 8607 14be
00000390: a27c d13d 832f c63d 6caa 483d ebad 27be
000003a0: 3e3d 02be c537 983d 0506 943e 6afc 5bbe
000003b0: 4234 6abb 4a8f eebd b6d8 81be b17b fc3d
000003c0: 4313 f4bd 643e 33be 0894 85be 10b8 87be
000003d0: 9d5a 84be ee42 b4bd eff9 213e 9230 243e
000003e0: 0c65 773d f0c9 aa3b 1185 b4bd 3043 32be
000003f0: fcae 02be ca05 bebd 4a69 973d 61f5 683c
0.04002729 -0.020797385 -0.023698904 -0.18337357 -0.13049951 -0.089180425 -0.09559584 -0.2020712
0.17877184 0.13796052 0.19371504 -0.13841255 0.18672475 0.066185795 -0.113752164 -0.017409118
0.052589264 -0.24938951 -0.102837406 0.18292193 -0.25283846 -0.08237251 -0.17704491 0.1229768
0.17831075 -0.17281282 -0.035355546 -0.04770418 -0.12587005 0.13323125 0.022605201 -0.23905253
-0.1495197 0.054462824 0.0573977 -0.18419716 -0.1397838 0.07432436 0.15422401 0.10976092
-0.15687978 0.047624916 0.12521222 0.20937137 0.13013577 0.12586322 0.011952554 0.16732633
-0.12567677 -0.0055188057 -0.0446267 0.0032870087 -0.17680399 -0.2941571 -0.099106275 -0.035195623
-0.21951395 -0.21544924 0.07317882 0.19075271 -0.11770533 -0.19480044 0.09189233 0.036839347
0.15241739 -0.14228646 -0.16221468 0.12837121 -0.051524803 0.1234948 -0.06819813 0.038681235
0.1361768 -0.085683845 0.106293544 0.07053068 -0.0057224026 0.19038375 -0.18677364 -0.027479975
0.045874372 0.091701195 0.15136649 -0.16230758 -0.049105648 0.10915907 0.023012351 -0.05658666
0.072444975 -0.30114058 0.12604047 -0.0046456954 0.16705742 -0.17083329 -0.14928177 0.052035846
0.17465328 -0.17349766 -0.11174246 -0.24096368 0.19792458 0.0629355 -0.12179187 0.16063091
0.14226402 0.080430776 -0.17004234 -0.17922896 -0.15860622 -0.18540144 -0.1935789 -0.20176484
0.10024803 -0.077204704 0.05300462 -0.17940563 0.03965044 0.038612287 0.09657502 -0.048469447
0.15959567 0.25634077 0.03313737 0.011394862 0.0050572813 0.2208206 -0.057983696 0.23386866
0.16095525 0.23572429 -0.118063234 -0.1531023 -0.0979283 -0.076887324 -0.18576626 0.09846588
0.094437785 1.4257268e-05 -0.028685551 -0.18127783 -0.22740048 -0.06276742 -0.020018458 -0.24841826
-0.090558715 -0.07297906 -0.22590677 -0.13128616 -0.13632251 0.16819812 -0.03303353 -0.1627668
0.20230041 0.20495296 -0.1498967 -0.13125591 -0.20348448 -0.16666976 0.004510334 0.11954793
0.21591493 -0.031839754 -0.053830475 0.08439048 0.0038339086 0.20823935 0.05857694 -0.16651392
-0.024494207 0.03866949 -0.1292882 0.053479586 0.037679 -0.106201045 -0.012003844 0.18073738
0.0027401028 0.1362519 -0.15819696 0.22239457 0.04365814 0.078378655 0.23360822 0.1049142
0.14390959 -0.19029877 0.044291493 -0.1566808 -0.06403911 0.04466072 -0.25263053 0.0016163163
-0.16216873 -0.17817073 -0.082068905 -0.09886168 0.013512184 0.075441524 -0.15261075 -0.18534748
0.12117784 -0.12640753 -0.09692046 0.029462831 0.020602487 -0.28105316 0.19069907 0.08337986
0.14187767 0.08854619 0.044677023 -0.050047543 0.04284162 0.14848587 0.19655652 0.100602835
0.20730282 -0.15519303 0.011396517 -0.16544166 0.010727842 -0.010021961 -0.27323845 -0.12175872
-0.19107747 -0.035929866 -0.24233961 -0.14455995 0.1022885 0.09677031 0.048990652 -0.16374938
-0.12718675 0.07432512 0.28910843 -0.21483007 -0.0035736714 -0.11648424 -0.2536065 0.1232828
-0.119177364 -0.17504269 -0.260895 -0.26507616 -0.25850382 -0.08801828 0.15817998 0.16034153
0.0603991 0.005212061 -0.08814443 -0.17408442 -0.12762064 -0.09278448 0.07393129 0.014218659

layer1.0.bias f4 [16]
00000000: c7f0 52be 04e7 373e fd2c 323e f7ed 28be
00000010: fb3d 02bd b059 49be 1471 2bbd 8175 78be
00000020: 64f8 1b3e 681e 00be 62d3 793d 4aad 1fbd
00000030: 6b8a 403d 24fe 153e 9f9c 743b 4a7e 693d
-0.20599662 0.17959219 0.17399974 -0.16497026 -0.03179739 -0.1966312 -0.041855887 -0.24263574
0.15231472 -0.12511599 0.060992606 -0.03898362 0.047007006 0.14647728 0.0037324799 0.057005204

layer1.1.weight f4 [16]
00000000: 052d 863f ff35 7e3f 2511 8c3f fc7c 863f
00000010: 494d 8f3f 1bef 8d3f b782 8e3f 114f 8c3f
00000020: 14fa 803f 93fd 943f 6968 923f 42d0 803f
00000030: f0da 943f d256 793f 47e2 7e3f 1c13 893f
1.0482489 0.9930114 1.0942732 1.0506892 1.119546 1.1088594 1.1133641 1.0961629
1.0076318 1.1639885 1.1438113 1.0063555 1.1629314 0.973981 0.9956402 1.0708957

layer1.1.bias f4 [16]
00000000: d1cf c0bd fc1b 89bd d8d0 07bd 32b2 59bd
00000010: 1b74 83bd f3bb 84bd 0cd0 2abd 7829 82bd
00000020: b9a0 37bd 66b5 8ebd c036 95bd 75b1 1dbd
00000030: 043c 9bbd 844d b0bd a5f3 b3bd a753 d3bd
-0.09414638 -0.06694791 -0.033158153 -0.053148456 -0.0641863 -0.06481161 -0.041702315 -0.06355566
-0.04483101 -0.06968193 -0.07285833 -0.038499314 -0.075798064 -0.08608535 -0.08786706 -0.1031869

layer1.1.running_mean f4 [16]
00000000: 5c3f 5abe d817 883e 8191 073e ad2c 25be
00000010: d7d5 f2bc 68fc 7dbe df91 33bd b9ee 81be
00000020: a086 373e df83 2cbe 06e4 7e3b 8d44 27bd
00000030: 83ab 523c ec2c 893e 94d8 393e 4fb7 b53c
-0.21313232 0.2658069 0.13239099 -0.16130324 -0.029642982 -0.24803317 -0.043840285 -0.25377443
0.17922449 -0.1684718 0.0038893237 -0.04083686 0.012858274 0.26792085 0.18149024 0.022182135

layer1.1.running_var f4 [16]
00000000: e0d6 b23c 08ff 433d 3d6e 363d e5c2 413d
00000010: 9456 9f3c 424f 103d 90c7 123c 5b98 c73c
00000020: e59e a53c cc15 173d 5b69 6e3d 5330 7c3c
00000030: 22b0 c73c 0b26 9c3c 01a0 5b3d 1eb1 1b3d
0.021830976 0.04785064 0.044538725 0.047305007 0.019450463 0.035231836 0.008958712 0.024364641
0.020217368 0.03688602 0.058205944 0.015392381 0.024375979 0.019061109 0.05361939 0.03801071

layer2.0.weight f4 [32, 16, 5, 5]
00000000: 45a3 4ebc 40a6 7bbc c26e bdbc c9e3 993c
00000010: a607 8d3d e0ed c33b a42a 483d 23ea 95bb
00000020: 4dcc 3c3d 9a03 613d bd99 11bb 4c7d 9e3c
00000030: e530 503d c6b9 81bc 80bb f8bc 9333 9bbd
00000040: 616d 07be e638 18bc 5365 093d b476 42bd
00000050: 8a83 5abd 6bca 67bc 2092 b7bd 3a59 05bd
00000060: 797e 1bbd f2a7 9cbc 9ae1 1ebc 7275 673c
00000070: dfb3 ca3d 76e1 18bc c3cd 97bc 2e25 f03c
00000080: 6ec4 363d f9cb 8abc 68a3 ccbb c2bb 503c
00000090: 604d 833c 9d7d 9bbc 1735 00bd f3c3 b83c
000000a0: 5dea 3dbd 10c2 c7bd 6556 6cbc 734b cfbc
000000b0: 43d4 ce3a a1b5 14bc f822 633b 93ea 7d3d
000000c0: a828 963c 7d61 253d 41d9 6c3d a27f 08bc
000000d0: 48b3 7e3d 21c7 be3d 7130 4f3d 7574 873d
000000e0: 793f 783d 3412 a63d 1681 1f3b 29a5 7f3d
000000f0: 3651 00bd 16d8 f9bc 7b6d b33b 5d51 b0bd
00000100: 8068 423b 214a 81bd 45ec e3bd b5c9 bfbd
00000110: b67d 0abe 26fb bfbd f14f 0bbb 3e1f 163d
00000120: f15b d73c 3399 4f3d 4929 84bd ef59 fbbc
00000130: dd9f 81bc d3fc b0bd fbc9 22ba 8739 2e3d
00000140: 742b 38bc f570 9f3a 36b1 a13d 6935 983c
00000150: 6a29 dabc 7e03 21bd f9f9 86bc 32c0 383d
00000160: dcfc 043d 78ad 6a3c a6f6 babd 86c8 4cbd
00000170: d4c4 1dbd a501 5dbd d03c b43c ffd5 b9bd
00000180: 132a b7bd 0a06 a4bc 20f7 b93c 865c 46bd
00000190: 029c 9d3d c6c3 a23d 5015 143d c983 69bd
000001a0: d083 51bd 9df1 3a3d 18fe 593d 5433 e6bc
000001b0: 6afb 1a3b f5a6 853d aad0 f4bc ecde 95bd
000001c0: 1fc1 07be 52ba 32bc 83fd 833b 4b88 973b
000001d0: 72f1 84bc 133c 0fbd 8bad ccbb 1696 2fbd
000001e0: c4a5 023e 5a6a d33d 60c6 bb3b 6de9 3f3d
000001f0: 799a 813c 9fc7 cbbc 524c 9bbc 9b11 9b3b
00000200: 2219 e7bc 367a 30bd c98e a3bb 9d5b 20bc
00000210: 7813 0dbd c79a 33bc 678e 833d 8ad5 19bd
00000220: a8a3 b1bd ff2a c0bb e0d0 3abd 6946 9abd
00000230: edce 1e3d ce9a 953d 5272 513d 125c 4c3c
00000240: 9d17 2e3c 35d7 0d3d 0b2e 233d 2369 24bc
00000250: cdff 68bd 0427 a5bc ac03 9abc 997e 5c3c
00000260: 779a f7bd d6d5 21bd 2a1e 9abd 29da 1ebd
00000270: acd7 18bd a4e5 15bd cdfd 14bd 9bbc 13bd
00000280: 59bc 033d cd2b f13c 9ee5 863d c647 913d
00000290: 39e9 6f3d 6210 d2bc 7f3e f3bc 1f57 b53d
000002a0: 1881 d63d ac85 d23d 0b95 403c a986 873b
000002b0: 5f64 28bc 3156 b63c 803c a9bc 3a22 8bbd
000002c0: 5f69 4ebc 8af0 a6bd b6d7 13bc ea44 3fbd
000002d0: 22fc 903c d546 d73b 2699 acbc e769 623d
000002e0: 600d c13c c747 94bb a2aa 1ebc 1a04 18bb
000002f0: ad61 70bd c208 d03c ebac e63d c674 533d
00000300: 47f7 debc 336a 0abd 5014 febc 2cc3 b53c
00000310: 4a17 dfba 7d91 82bd 22bd c5bd 0e12 d8bc
00000320: 8feb cdbc dc7f 04bd 8bf0 f23c ae7a 9c3d
00000330: 56b8 ac3d 303a 71bd 6ed5 e7bc 97ba ff3c
00000340: 4de5 a23c 464b 95bd 82e9 bd3c 6767 893d
00000350: 846a 853d 6881 91bc f8fb 06bd f914 82bc
00000360: f948 14bd e7e2 aabc b8ee 1fbd 542a fbbc
00000370: 2b46 08bd 3efe a3bd 0868 2bbd b69d e8bc
00000380: 31d6 c9bc 9059 b23c febb 08bc 7da8 adbd
00000390: 9b95 b0bd 0856 0ebd e6f6 b13c 7008 a9b8
000003a0: f03d 34bd 32e7 3abc 4a57 00bd 4f1a 763d
000003b0: 1ae8 85bc ac42 9b3c a6b8 6ebd 814e 3d3b
000003c0: 2873 2bb9 2334 013d 6836 a03d cae6 c33c
000003d0: b9f3 ddbc 0644 ec3d bcf0 073d 28f3 093d
000003e0: 8ffb 28bd f52b a6bd ec97 d23c 944c 3b3d
000003f0: 37e5 42bd de90 91bc d898 b2bd ba6f b83d
-0.012612169 -0.015359461 -0.023124103 0.018785374 0.068862244 0.0059792846 0.04886879 -0.0045750304
0.046093274 0.054935075 -0.002221688 0.019346856 0.05082788 -0.015835654 -0.030362844 -0.075781964
-0.13225318 -0.009290909 0.033543896 -0.047476485 -0.0533481 -0.014147381 -0.08963418 -0.032555796
-0.03796241 -0.019123051 -0.009697342 0.014127122 0.09897589 -0.009331098 -0.018530732 0.029314604
0.044620924 -0.016942965 -0.0062450655 0.012740077 0.016028106 -0.018980796 -0.03130063 0.022554373
-0.046366084 -0.09753811 -0.014424895 -0.025304532 0.0015779812 -0.009076507 0.0034658294 0.061991286
0.018329933 0.040376175 0.057824377 -0.008331211 0.062182695 0.093153246 0.050583307 0.06614009
0.060607407 0.08108941 0.0024338416 0.06241337 -0.03132745 -0.030498546 0.0054756976 -0.08609269
0.0029664338 -0.06312967 -0.11129049 -0.093646444 -0.13524517 -0.09374075 -0.0021257366 0.03665089
0.026288958 0.05068321 -0.06453187 -0.030682532 -0.015823299 -0.086419724 -0.0006209907 0.04253533
-0.011240829 0.0012164401 0.078951284 0.018580155 -0.026631076 -0.03930997 -0.016476618 0.045105167
0.032467708 0.014323585 -0.09129076 -0.04999592 -0.038517788 -0.053956646 0.022001654 -0.0907402
-0.08943572 -0.02002241 0.022700846 -0.04842808 0.07695772 0.07947497 0.036153138 -0.057010446
-0.051151097 0.045640577 0.05322084 -0.028100647 0.002364839 0.06525985 -0.029884655 -0.073179096
-0.13257264 -0.01090868 0.0040280237 0.0046244017 -0.016228411 -0.0349694 -0.006246274 -0.042867742
0.12758547 0.10323019 0.0057304353 0.04685347 0.015820729 -0.02487546 -0.01895729 0.0047323233
-0.028210226 -0.0430853 -0.0049913866 -0.009787467 -0.034442395 -0.010962195 0.064236455 -0.037557162
-0.08673793 -0.0058645005 -0.045609355 -0.07532961 0.03877156 0.07304917 0.051134415 0.012473123
0.010625747 0.034629066 0.039838832 -0.010034832 -0.056884576 -0.020160206 -0.018800579 0.013457918
-0.12090009 -0.03951057 -0.075252846 -0.038782272 -0.037315056 -0.036595955 -0.036374856 -0.03606854
0.032162044 0.029439831 0.06586765 0.07093768 0.058572028 -0.025642578 -0.029692886 0.08854508
0.104738414 0.10279402 0.011754285 0.004135926 -0.010277837 0.022257896 -0.020658731 -0.067936376
-0.012598365 -0.08151348 -0.009023597 -0.04669658 0.017698351 0.006569723 -0.02106912 0.055276778
0.023565948 -0.004525158 -0.009684237 -0.0023195804 -0.0586869 0.025394801 0.1126345 0.051625036
-0.02721752 -0.033792686 -0.031015545 0.022187792 -0.001702049 -0.06375406 -0.09655215 -0.026375797
-0.025136737 -0.0323485 0.029655715 0.07640587 0.08433597 -0.058893383 -0.028300013 0.031216903
0.01988473 -0.07289748 0.023182634 0.067091756 0.06514457 -0.017761901 -0.03295514 -0.015879141
-0.036202405 -0.020860149 -0.03904602 -0.030659832 -0.033270042 -0.08007477 -0.04184726 -0.028395515
-0.024638267 0.021771222 -0.008345602 -0.08479402 -0.08622285 -0.034750015 0.021724176 -8.0601196e-05
-0.04400438 -0.01140766 -0.031333245 0.060083684 -0.016346026 0.01895269 -0.058281563 0.0028885903
-0.0001635073 0.031543862 0.07822877 0.02391376 -0.027093755 0.11536412 0.033188567 0.033679157
-0.04125553 -0.08113853 0.025707208 0.045727327 -0.047581878 -0.017769273 -0.08720559 0.09005685

layer2.0.bias f4 [32]
00000000: deea 3fbd e652 403b 7e41 4abd 54fd c2bd
00000010: 6c84 40bb 087d cebd 7a4c 353d 6a9d 443d
00000020: 13af dfbc 0233 dcbc e4bc fabc 60d0 fabb
00000030: 810c 00bc 17ff 72bd 252d 403b 5843 53bd
00000040: 2e59 e1bc ffa0 583c 7529 53bd be4e 713c
00000050: 1688 773d 51c1 c13a 3cb4 8dbc c064 e1bc
00000060: e735 4abc dfb4 093c d93c 42bd 1a09 babc
00000070: 42ac c5bc 1a64 5d3d 1314 50bd c10b e43b
-0.046854846 0.0029346286 -0.049378864 -0.09520975 -0.0029375805 -0.100824416 0.044262387 0.048001684
-0.027305162 -0.026879791 -0.030607648 -0.0076542348 -0.007815481 -0.059325304 0.0029323783 -0.051577896
-0.027508345 0.013221978 -0.05155321 0.014728246 0.060432516 0.0014782344 -0.017297857 -0.027513862
-0.012341953 0.008404939 -0.04742131 -0.022709418 -0.02412999 0.054050542 -0.050800394 0.006959409

layer2.1.weight f4 [32]
00000000: 2651 913f 520d 983f ddfc 983f 03a7 923f
00000010: b776 913f 71a9 9b3f 87f2 933f d75f 933f
00000020: e8c6 923f f08d 8f3f ea33 933f d148 953f
00000030: c5b5 8d3f 2124 933f d83e 933f 58a6 963f
00000040: afe3 943f 48b4 8d3f ab5c 903f ebce 983f
00000050: 2df2 923f 6d13 8a3f 1420 8f3f 36eb 8d3f
00000060: 99d0 933f 7137 8d3f a4d6 8f3f bfdb 8d3f
00000070: b981 8d3f 9a7c 9a3f 659f 923f c7b8 923f
1.135289 1.1879065 1.1952168 1.1457218 1.1364354 1.2161084 1.1558388 1.1513623
1.1466951 1.1215191 1.1500218 1.1662847 1.1071097 1.1495401 1.1503553 1.1769514
1.1631984 1.1070642 1.127828 1.1938146 1.1480156 1.0787178 1.1181664 1.1087406
1.1548034 1.1032544 1.1237378 1.1082686 1.1055213 1.2069275 1.1454893 1.146264

layer2.1.bias f4 [32]
00000000: 593d 143d 6353 2dbc c072 c83c 726d 45bc
00000010: 977d 253b 699c b4bc c9d6 573c 44fb 663c
00000020: eee9 93bc 318e cb3c 26e4 da3b cd39 193d
00000030: 5c68 61ba 1ece 9a3c a762 aa3b a834 aa3c
00000040: 7d5a 853d 9604 303c 8ab6 563c cef8 463d
00000050: f22d cab9 25b9 b13c 5f7f c53c b95a 2f3c
00000060: f993 80bb 56d7 7f3c 63ec 1c3b ae6c d33b
00000070: 0750 a93c 9ac2 c63c 662d 123c 3577 e73b
0.03619132 -0.010578963 0.02446878 -0.01205002 0.002525186 -0.022047238 0.013173767 0.014097992
-0.018055882 0.024848076 0.0066800294 0.03740864 -0.00085986196 0.018897112 0.0051997486 0.020777062
0.065114 0.010743281 0.013105044 0.048577122 -0.00038562674 0.02169473 0.024108587 0.010702782
-0.0039238897 0.015615305 0.0023944608 0.0064521646 0.020668043 0.024262715 0.008921957 0.007063771

layer2.1.running_mean f4 [32]
00000000: 996b 843c da9e 103f 78e5 c53e a07e a6bd
00000010: 1772 8f3e 3677 f93e dee8 103f 739b 053e
00000020: da38 093f 3ced 593e 32c8 813e a90f ae3e
00000030: 601c d63e baf2 9ebd 9d8b d73e 9e6d b43d
00000040: f3da d93d 7ff0 d33e cff7 05be 9044 a93e
00000050: 3c88 bd3e 2b18 c8bb 5d10 5b3e a071 2f3e
00000060: 4338 883e 1db9 933d 33a2 20bc 2356 d33e
00000070: 52d0 98bd 51b9 7b3e 0bd4 913e 72c9 643e
0.016164588 0.5649239 0.38651633 -0.081296206 0.2801673 0.48723763 0.5660533 0.1304758
0.53602374 0.21281904 0.2534805 0.33996323 0.41818523 -0.0776114 0.42098704 0.0880997
0.106374644 0.4139442 -0.13082813 0.33060122 0.37018 -0.0061063967 0.21392961 0.17133188
0.26605424 0.07213042 -0.009804296 0.41276655 -0.07461609 0.24582411 0.28482088 0.2234247

layer2.1.running_var f4 [32]
00000000: b4d3 713e 396b 6b3e ce24 6b3e 3164 043e
00000010: 0ccd 823e 6d52 603e ffc1 253e 9d6e a13e
00000020: c0ff cf3e ceeb 923e aad1 763e e9a6 a73e
00000030: 2786 4f3e cebd 433e 66ff 6b3e 3088 5a3e
00000040: b81f 163e 87bf b53e 3029 2c3e e955 7d3e
00000050: e42b 873e 6803 3a3e cae2 563e f5f3 7d3e
00000060: 37a5 233e 72c2 483e ccb1 3b3e 22c2 513e
00000070: 24db 333e 515e 9d3e 3162 9e3e 0a0d bc3e
0.23615915 0.22990121 0.22963259 0.12928845 0.25547063 0.21906443 0.16187285 0.31529704
0.4062481 0.2869553 0.24103418 0.3274453 0.20266019 0.19115373 0.23046646 0.21341014
0.14660537 0.35497686 0.16812587 0.24739803 0.26400673 0.18165362 0.2098495 0.24800093
0.15980993 0.19605425 0.18329543 0.20484212 0.17564064 0.3073602 0.3093429 0.36728698

fc.weight f4 [10, 1568]
00000000: 938a aabc f3db ac3b bb0c 3a3c 6eae 0d3c
00000010: a583 2ebd 33af 1abd 9899 10bd 58fa abbc
00000020: ed60 4abb a0d0 19bd b99b 22bd b828 12bd
00000030: 76b2 21bd 8e17 70bd cecb 2fbd 9595 bebc
00000040: 7def 8abc 0ea9 abbc 3999 23bc 633e 16bc
00000050: 5d2e 49bd 4e27 1b3a 034e 85b9 01f8 183c
00000060: 12df 09bd ca48 98bd a035 133d 53ee ad3b
00000070: 82fa d43b 9fa8 a3ba 7c64 95bc 1289 37bd
00000080: 1f73 073d b63d 9c3d 4ea0 cabd 7e23 973c
00000090: 7354 c7bc bfe0 77bc 3da3 223d f15d 0c3d
000000a0: 2c87 603d bf25 5ebd e60e eebc a7c3 efbc
000000b0: fd7a a5bc cce2 123c 8e81 143d 6b61 6f3c
000000c0: 9be8 60bd 75df 2ebc 931c 17bd 971e 91bc
000000d0: 6264 45bd 872e 083c 1d43 903c b9e2 de3c
000000e0: e851 f7bc 97f7 1fbd 2a78 7cbc 33ea adbb
000000f0: 3aaf 863c 97cf c23c 4b91 35bc 67ab 8f3c
00000100: 3af6 49bc 00ea 27bc 0dbf b13c 7491 7e3b
00000110: 4e08 10bc 3662 223c 1da4 18bd 2260 08bd
00000120: 5d1c 083d e852 b43c 2e26 f6bc 22f6 48bd
00000130: a445 933c b2e5 44bd c1cc 62bd 7604 d1bb
00000140: 7eb8 1f3d ff04 8f39 a907 203d 3741 a43c
00000150: 0d9d 94bd 5246 a8bd 6da2 63bd 7c91 9f3d
00000160: 1f5e 783d a2f5 3d3d e0bd 39bc 8379 80bb
00000170: d750 b23c 772d 203c e855 32bb a121 acbc
00000180: e26b fcbb d4e8 e03c df64 023c 6cc7 37bd
00000190: 11a7 8fbc 0ccf 84bc ad5e 26bc 9dfd bcbc
000001a0: 7016 c33b 95f9 383c 6093 bfbc b450 babc
000001b0: 0287 053d 52eb fc3b fe7b 023c 9960 113d
000001c0: 6b71 44bd 6041 3e3c 08ba e33c 7bb9 79bc
000001d0: f938 cc3b 4782 893d bd70 383d d96a 3cbd
000001e0: 23a6 d9bd f573 883c e00f c63c fd3c 613d
000001f0: c792 453d 5dfc 383d 9e11 51bb 765a d7bc
00000200: 547c 89bd a5b3 3e3c 95f5 9c3c 6de1 38bc
00000210: 24d5 ffbc b451 7bbb 8a8a 16bc a7e1 a13c
00000220: a3cb 203d da0e 6c3c 1a41 4e3c 7edd b6bc
00000230: 11cc d83c 1e05 01bd c575 0e3d 131b e23c
00000240: d5ee a53c c7d6 3ebd 7ab7 50bd 0600 283b
00000250: 8f3a 2d3c 615b 7bbb d31a 883c 463a 003d
00000260: 2d7d abbc ca90 bd3c 711e 73bc db65 b9bc
00000270: 9e0d bc3c e5cf a4bc eeb7 1fbb 8b53 803b
00000280: 698e 93bb e742 89bc 7265 9cbd c51e 813d
00000290: 1592 04bd 01a2 61bc 312e 6c3c 61db 08bc
000002a0: 60cc edbc 72ed 48bc c490 533d 783b 6f3d
000002b0: 4987 0abd d0c5 acbc 1d64 3abb 570c 1bbd
000002c0: 4e7b f23c d3ac 153d 1c08 93bb 13ff 93bc
000002d0: 1906 49bd b669 ac3c 1f2e 3abd 600c 4a3b
000002e0: c6ef a43c 2150 3bbb 1b51 4dbb bd1a 8b3b
000002f0: 37aa 07bd ac0e 65b9 e8ad 43bd a872 413d
00000300: 0eda f23c 1ee5 e93b 664d da3b bd65 d4bc
00000310: 13e2 07be b49f a1bd 31a4 173d 7aea 6bbd
00000320: cd91 d33b 9d28 ed3c 6bdb abba ee2b 15bd
00000330: 5450 773c f555 323c d82f b33b 9023 5bbc
00000340: 22c6 09bd 46cc 1ebc 4152 403d ebc3 fa3c
00000350: 0ba4 bebb faec 9abd eaf2 253c 5c16 433b
00000360: 793f ae3b 327b ad3c 0f26 a73c ec21 0cbd
00000370: 54da 0b3d 25a0 35bc 1dd2 3abd 4f2a 1e3c
00000380: e454 003d 17ec 213b f905 d93b b621 bb3b
00000390: e657 eabb 957c 9ebc 8d6b 523c f887 e6bc
000003a0: 891d 16bd 2826 2fbd 7a18 89bc 2428 1f3d
000003b0: 6264 ef3c fc12 643c 5df3 13be 823b 3dbd
000003c0: 29c5 34bc 5961 6ebc 80b5 1cbc 47f8 05bd
000003d0: 8984 72bd 4bff b5bc 3228 20bd ed42 e0bc
000003e0: 877e 06bd cbb1 813c f8e2 2cbc 9a37 1abc
000003f0: 97c6 913c 42f0 af3a cfd5 dd39 f6f0 c338
-0.02081803 0.0052752434 0.011355574 0.008647544 -0.042606015 -0.03776474 -0.03530273 -0.020993397
-0.0030880526 -0.037552476 -0.03969929 -0.035683364 -0.039476834 -0.058616214 -0.042918973 -0.023264686
-0.0169599 -0.020954635 -0.009985262 -0.009170148 -0.04911648 0.00059186376 -0.0002542586 0.0093364725
-0.033660002 -0.074357584 0.035939813 0.0053079515 0.0064995894 -0.0012486166 -0.018236391 -0.044808455
0.033068772 0.07628958 -0.09893857 0.018449541 -0.02433226 -0.015129267 0.039706457 0.034269277
0.05481641 -0.054235216 -0.029059839 -0.029268099 -0.020200247 0.008965205 0.036256365 0.014610629
-0.05490933 -0.0106733935 -0.036892485 -0.017714782 -0.048191436 0.008311874 0.017610127 0.02720772
-0.030190423 -0.03905448 -0.015409509 -0.0053074597 0.016440976 0.023780627 -0.011082004 0.017537786
-0.012326771 -0.010248661 0.021697545 0.003884402 -0.0087910425 0.009911111 -0.037265886 -0.033294804
0.033230174 0.022012189 -0.030047502 -0.049062856 0.017977543 -0.048070617 -0.05537105 -0.0063787056
0.038994305 0.00027278808 0.039069805 0.020050628 -0.072565176 -0.082165375 -0.055574823 0.07791421
0.060636636 0.04637683 -0.011336774 -0.0039207353 0.021767063 0.009776465 -0.0027211849 -0.02101213
-0.0077032903 0.027454771 0.00795862 -0.044867918 -0.017535718 -0.016212009 -0.010154408 -0.023070151
0.0059536025 0.011289974 -0.023385704 -0.02274356 0.032599457 0.007718482 0.007964132 0.035492513
-0.047959726 0.011612266 0.027798668 -0.015241976 0.0062323776 0.067143016 0.04502939 -0.046000335
-0.10627391 0.016656855 0.024177492 0.054989804 0.04823568 0.045162547 -0.003190137 -0.026288252
-0.06713167 0.01163951 0.019160071 -0.011284214 -0.031229563 -0.003834826 -0.009188304 0.01976092
0.039256703 0.014407838 0.012588764 -0.022322413 0.026464494 -0.03149902 0.034780283 0.0276008
0.020255486 -0.046591546 -0.050956227 0.002563478 0.0105730435 -0.0038354027 0.016614353 0.031305574
-0.020933712 0.02314033 -0.014838801 -0.022631576 0.022955712 -0.020118663 -0.0024371105 0.003916209
-0.0045030606 -0.016755534 -0.07636537 0.06304697 -0.032365877 -0.013771535 0.01441531 -0.008353085
-0.029028118 -0.012263643 0.05165173 0.058406323 -0.033820424 -0.021090418 -0.002844102 -0.037853565
0.029599812 0.03654177 -0.0044870507 -0.018065965 -0.04907808 0.0210465 -0.04545414 0.003083013
0.020133864 -0.0028581696 -0.003132886 0.004245131 -0.033121314 -0.00021844608 -0.04777327 0.047228485
0.029644992 0.0071379086 0.0066620586 -0.025927419 -0.13269834 -0.07891789 0.03702182 -0.05759666
0.00645659 0.02895003 -0.0013111656 -0.036418848 0.015094835 0.010884752 0.00546835 -0.013375178
-0.03363622 -0.009692257 0.046953443 0.030611 -0.0058178953 -0.07564731 0.010128716 0.0029767966
0.005317625 0.021176908 0.02040389 -0.034212038 0.03414376 -0.011085545 -0.045610536 0.009653642
0.031330958 0.002470737 0.0066230264 0.0057108058 -0.0071515916 -0.019346515 0.012843025 -0.028141007
-0.03664926 -0.042760998 -0.016735304 0.03885664 0.029222671 0.013920542 -0.14448304 -0.04619933
-0.011033335 -0.014549577 -0.009564757 -0.03270748 -0.059208427 -0.02221646 -0.039100833 -0.027375663
-0.03283551 0.015831849 -0.01055216 -0.0094126705 0.01779489 0.0013423043 0.00042311705 9.343207e-05

fc.bias f4 [10]
00000000: 9435 1cbc 352d 153b 0442 c53c 012c 353b
00000010: d001 d4bc d161 9f3c 0509 abbb 7b0c 18bc
00000020: cffc 0abc cc80 5dbb
-0.009534258 0.0022762541 0.02407933 0.0027644637 -0.02587977 0.019455822 -0.005219581 -0.009280319
-0.008483126 -0.0033798693
