LeNet-PyTorch_initial/lenetSGD.pth (torch, 121077 bytes, 14 tensors)

layer1.0.weight f4 [16, 1, 5, 5]
00000000: ff11 3abe c7e9 90bd afda ff3d feb7 723e
00000010: 59fb 62bd ecaa fb3d 25ae e03d b84c ff3d
00000020: 1e6a ce3d b96c a33d a54a 23be 849a 3fbd
00000030: 5a55 b9bd 0f5a 603e 20f7 2e3e 702c 16ba
00000040: 5b16 753d f647 7dbc e5a7 913d 5739 f5bd
00000050: 9131 343d 9c07 34be 9c5e 353e 17a3 9cbd
00000060: e33b 183e 68e7 1d3e 46ac dd3d 4718 06be
00000070: 6c1b 2a3c b325 af3c 09fa 1fbe 70ba 66bd
00000080: 26bf b8bd 93e4 2db9 1af0 08be 7abe 0abd
00000090: 40e1 16be c8e8 5dba b336 0cbd c5df f8bd
000000a0: b16d c4bd d02c a23d b5a3 353e 550a 0e3e
000000b0: 2a91 39be c974 a53d 98d6 96bd e271 0bbe
000000c0: 232d 8a3b 457a de3d 76fe 34be e674 003e
000000d0: 3d00 a33d 2413 8f3c b73c 59bd e092 0fbd
000000e0: 2d91 643e 435a ac3c ead9 b3bd 5fd6 8c3c
000000f0: 9434 453d 7850 5bbd b999 5e3e 041d 80b8
00000100: f31d 65be 4d7f 8d3a 5f9e 44bd 8f2f ff3d
00000110: 102f 0c3e 1221 ffbd d69c 0dbe 1ae6 193e
00000120: 261a 953d 436d adbd f744 04be 042c eabd
00000130: ee52 01bd f9d0 49be 85da c8bd a23a 2d3e
00000140: f889 c7bd ddae 20be 1494 1abd e3bc 4abc
00000150: d3ee 42be 76de a43d 3b50 0cbe 6e24 cabd
00000160: c272 3cbe 3eba 28be 2338 ecbd 2e50 f8bd
00000170: 292d cdbd 8126 7abd 42a2 d83d 3fb7 553e
00000180: 9bcf 06be 0158 583d 22c4 3abe fbd7 98bd
00000190: d86d 80bd d606 cdbd 8778 2f3e 87d1 4d3e
000001a0: 8822 1f3d 82fe 03be a7e0 3fbe c2ff 26bd
000001b0: c46e 5fbd df8c fc3d c233 903c 2cdd 873d
000001c0: a8f5 9cbd 7f9a 2bbe 8ce6 963c 97f1 5b3e
000001d0: 6442 1d3e 92f4 3dbe 16bd 33be 79fb d6bd
000001e0: 9b12 b73d d375 553e 9a04 2a3c 8ee2 343e
000001f0: 0480 ef3d 6394 ee3d b96f 083e 1f57 37be
00000200: c76e cdbc 8615 4abe 0a20 24be ecda 133e
00000210: 663d 1d3e 5435 b1bd 3f10 d1bb 93c4 1bbe
00000220: 4166 aebc 6381 3abe 8e9f cabd e4c2 08be
00000230: d4c7 963d 113e 013e 81e4 1dbe f075 2bbe
00000240: d639 d13d 9f26 0a3e b2b0 56bc 9f97 0bbe
00000250: 3e9e 323e 47d7 54bd 9aee 133d feb7 453d
00000260: c088 87bd 51ee 14bd 5295 b7bd 2229 523e
00000270: e360 aabd a542 22be cbc3 41be 8e3f 573d
00000280: b4d5 3cbe c639 ec3d 8071 e93d 961b 213e
00000290: 09f8 ce3d b357 0abe ec1e 55bd 9b6f 03be
000002a0: b26d d7bd f34b 34be 4e9b a3bd 4ef8 9fbd
000002b0: dd0d 32be 23a5 543d c61a 4ebd 184f 973d
000002c0: cfac 383d e54f 08be e829 8dbc dbd3 11be
000002d0: f986 373e 7985 f2bd abdf d93d b14d 0c3e
000002e0: 77cf 2ebe ff4b 653e 5ab7 79bd e5b6 ac3d
000002f0: ee30 533e 97df 41be 0aeb f6bd 8e94 ce3b
00000300: 7d16 87bd 03eb 393e 4bc1 793c f60e 3c3e
00000310: e282 e23d b223 423d 0070 423e ac4b 523c
00000320: f316 febb eb49 21be 79bc 54be 01fd 2dbe
00000330: 3da8 d7bd de94 86bc 013c 04be a8a2 b73c
00000340: c5a3 bbbd fcf2 e1bc 8726 0d3e 76b9 4e3e
00000350: c97e 4b3e b735 413e c936 803d 9884 7fbd
00000360: f6f1 243e 78c9 f4bd fe17 2c3e 1eb2 ecbd
00000370: 5663 243e f5bf a73d 700c adbd 9e59 4d3e
00000380: dcb0 9e3d 56e8 20be de8c 26be 42f8 00be
00000390: 5b78 2fbd 1583 323e fdf8 23be 3ddb e6bc
000003a0: 1f2b 9dbd 4072 113e 04c2 47bc e191 d9bd
000003b0: 8392 cd3d 25fd f93d 0b55 5539 ece5 3ebd
000003c0: 30e3 c23d 1b38 303e ff13 9f3d ec0c 22be
000003d0: 27bc 093e 6ffc d33d 7c95 0fbe 6d30 f0bd
000003e0: dfc7 96bd 65fe bebd aa70 ca3d a6d4 37be
000003f0: 660c a33c 1de3 b8bd e03d 063e 25ff bb3c
-0.18170927 -0.070758395 0.124928825 0.23703 -0.055415485 0.1228846 0.109707154 0.12465805
0.10078834 0.079797216 -0.15946443 -0.046778217 -0.09049483 0.21909355 0.17086458 -0.00057286676
0.059835773 -0.015459051 0.071121015 -0.11973827 0.043992583 -0.17581028 0.17711872 -0.076482944
0.14866595 0.15420306 0.10823874 -0.13095199 0.010382514 0.021380281 -0.15622725 -0.056330144
-0.09020834 -0.00016583716 -0.13372841 -0.03387306 -0.14734364 -0.0008465168 -0.034231853 -0.12152056
-0.095912345 0.079187036 0.1773823 0.13871129 -0.18121782 0.080789156 -0.07365149 -0.13617662
0.0042168065 0.10863165 -0.17675194 0.12544593 0.0795903 0.017465182 -0.053036418 -0.03505218
0.22321005 0.021039134 -0.08781798 0.017192064 0.048145846 -0.053543538 0.21738328 -6.10892e-05
-0.22374706 0.0010795385 -0.048002597 0.12460243 0.13689828 -0.124574795 -0.1382936 0.15029183
0.07280378 -0.08468106 -0.12916933 -0.114341766 -0.03157323 -0.19708623 -0.09807304 0.16916898
-0.09743112 -0.15691705 -0.037738875 -0.012374136 -0.19036417 0.080502436 -0.1370248 -0.0987023
-0.18403152 -0.16477296 -0.11534145 -0.12124668 -0.10018379 -0.061071876 0.10577823 0.20870684
-0.13165133 0.052818302 -0.18238881 -0.0746307 -0.06270951 -0.100110695 0.17135821 0.2009946
0.03885129 -0.12890056 -0.18738042 -0.040771253 -0.054548994 0.123315565 0.017602805 0.06633982
-0.07664043 -0.16758154 0.01842048 0.21478878 0.15357357 -0.18550327 -0.175526 -0.10497183
0.089390956 0.20845728 0.010377074 0.17664549 0.11694339 0.11649396 0.13323869 -0.17904328
-0.025077237 -0.19734773 -0.16027847 0.14438981 0.15355453 -0.0865275 -0.0063801105 -0.15211706
-0.021288993 -0.1821342 -0.09893714 -0.13355595 0.07362333 0.12621333 -0.15419199 -0.16744208
0.102161095 0.13491295 -0.013103651 -0.13632058 0.17443177 -0.051963117 0.03611622 0.04827117
-0.0661788 -0.03636009 -0.089640275 0.20523503 -0.08319261 -0.15845735 -0.18922345 0.052550845
-0.18440896 0.11534457 0.113986015 0.1573318 0.10105903 -0.13510017 -0.052031443 -0.12835543
-0.105189696 -0.17607097 -0.079886064 -0.07811032 -0.17388101 0.0519153 -0.050318502 0.07388133
0.045086678 -0.13311727 -0.017231897 -0.14240973 0.17922582 -0.11841864 0.106383644 0.13701512
-0.17071329 0.22392271 -0.060965873 0.08433322 0.20624134 -0.18932949 -0.12056549 0.00630433
-0.06596086 0.18156056 0.015243839 0.18365082 0.1106012 0.047397323 0.18988037 0.012835424
-0.0077542006 -0.15750854 -0.20775022 -0.16991045 -0.10530136 -0.016428407 -0.12913515 0.022416428
-0.09162096 -0.027581684 0.13784228 0.20187935 0.19872583 0.18868147 0.062604494 -0.06238231
0.16107926 -0.119524896 0.16806027 -0.11557411 0.16053519 0.0819091 -0.08449638 0.20053717
0.07748577 -0.15713629 -0.16264674 -0.12594703 -0.04283939 0.17432816 -0.1601295 -0.028180713
-0.0767424 0.14203739 -0.012192253 -0.10623527 0.100377105 0.122064866 0.00020344944 -0.04660599
0.09515989 0.17208903 0.07767486 -0.15825242 0.1345068 0.10350882 -0.14021868 -0.117279865
-0.07362341 -0.09325866 0.0988477 -0.17952213 0.019903373 -0.090276934 0.13109541 0.02294881

layer1.0.bias f4 [16]
00000000: 7996 2d3d cd8b 063e 51e4 30bc 01fd 4b3e
00000010: 1138 e6bd 5f17 253e e7eb 12be b21e e03d
00000020: 58e4 14be ec3a 453e e463 f0bd 251b 5f3e
00000030: 0ab5 f5bc ca84 213e 4fb8 afbd 3707 943d
0.04237983 0.13139267 -0.010796622 0.19920732 -0.112411626 0.16122197 -0.14347802 0.10943355
-0.14540231 0.19260758 -0.117378026 0.21787699 -0.029993553 0.15773311 -0.08580076 0.072279386

layer1.1.weight f4 [16]
00000000: 7ce0 843f 357b 803f 2cab 823f 176f 803f
00000010: 7479 823f da2c 803f cf5e 803f de37 833f
00000020: 816f 843f c8e1 803f 1e33 803f afe1 823f
00000030: deef 823f 80f8 833f 8713 833f f771 803f
1.0381007 1.00376 1.0208488 1.0033902 1.0193315 1.0013688 1.0028933 1.0251424
1.0346528 1.0068903 1.00156 1.0225123 1.0229452 1.0310211 1.0240334 1.0034779

layer1.1.bias f4 [16]
00000000: aa30 a93a 64f0 0d3a 5e88 58bb 3172 833b
00000010: 4e0f 3b3b 38d0 313a fd93 003b 0b44 453b
00000020: e70c 573b 21ab 91ba 6796 6c3b e835 4b3b
00000030: 6fe2 243b e00d 423b 4a65 183b 8937 ca3a
0.001290818 0.0005414544 -0.0033040266 0.0040114154 0.0028543058 0.0006783041 0.0019619458 0.0030100371
0.0032814087 -0.0011113622 0.003610039 0.0031007472 0.002515938 0.002961032 0.0023253732 0.0015427928

layer1.1.running_mean f4 [16]
00000000: b8e1 2d3d d545 5a3d 7215 13bd 7ea0 1ebd
00000010: 5ae9 d5bd 35c5 923d 7d1e 8dbe d8e7 043e
00000020: cbe4 1fbe c664 e13d 5215 88be bdfe 2f3e
00000030: df18 a9bc fb5e 273e 0c09 b4bd e48f 3cbc
0.04245159 0.053289253 -0.035909124 -0.038727276 -0.10444899 0.071665205 -0.27562323 0.12979066
-0.15614621 0.11005549 -0.26578766 0.17187019 -0.020641742 0.16344826 -0.08790788 -0.011508916

layer1.1.running_var f4 [16]
00000000: d7e2 3a3c 9560 9b3c 91a9 663c 9dde 1c3e
00000010: 943a c03c bec4 283d 5d04 453d 604f a43c
00000020: 3437 fa3c f296 073d e98c 9b3d 5e6b db3c
00000030: 2eac 6e3c 31b3 ce3c 7cfc 713c 4d72 583c
0.011406622 0.018966952 0.014078514 0.15319295 0.023465432 0.041203253 0.048099864 0.02005738
0.030543901 0.033102937 0.07595236 0.026784595 0.014567418 0.02523193 0.01476967 0.013210845

layer2.0.weight f4 [32, 16, 5, 5]
00000000: 112c 403b a452 1a3d 663c 473c c497 943c
00000010: 5573 18bd 7710 dc3c 7022 60bc fb24 c33c
00000020: 18a3 1cbd e269 28bc fb73 20bd 4f15 453d
00000030: 3a6f f63c 14bf 143c a29e 16bd 36d0 f93b
00000040: bedd 1f3d 33bd 853c 9285 03bd 3e7c cd3c
00000050: 28ce 563d 9c3c 6d3d 50cb 033d 040c 19bd
00000060: 02ca 74bc 53d6 9cbc 50a7 3b3c 27ee 9a3c
00000070: 2733 abb9 3148 f23c e53b 92bc 6eb2 3ebd
00000080: 3305 623c 51b4 48bd 092a 16bd e4de b7bc
00000090: b5ef 3fbd 7415 863c 099e 0d3d 46d9 ba3b
000000a0: ec60 dd3c 4512 2e3d 46be 403c 4407 30bd
000000b0: 0c07 16bd d755 2fbd 85a5 323d b64c 42bd
000000c0: 099c 20bd e02f 3dbd a5fd 7dbc 71e5 4b3d
000000d0: 30d3 073d d7bf 0ebd 9b48 24ba f3bb f43c
000000e0: 53cb 80bc e104 11bb e0eb 32bd 798a 00bd
000000f0: b4c0 333d 560d 693d 7985 083d 4f6f ce3c
00000100: 931a 31bc 5941 35bd 90cd 4e3d 112c 7e3d
00000110: 6364 3bbd db9c 44bd 20ce f8ba f0a0 fc3c
00000120: 5339 9b3b 4fba 44bd 583c f3bb 7f59 28bd
00000130: 3b5c 523d 4caf 4b3d ecf2 bd3c def4 c83c
00000140: 09bd 37bb 76be 1dbd 424e 3bbd 9b7a 3c3d
00000150: 44f2 5b3d 6df4 33ba 4e5c 363d 62e6 d23a
00000160: d5d9 17bd 3e47 85bc e992 87bc 469f 13bc
00000170: 7ae3 f03c 3d7c c93c c7af 883b 1ce5 15bd
00000180: 9578 e63c caee 8ebb 95c9 bb3c 6a0e 9dbc
00000190: 5e49 5d3c 75ea 9abc 22b3 123c 6608 4ebd
000001a0: c733 4fbc 8931 5dbb 8e41 1ebd 8a46 b2bc
000001b0: 910e 833c 6b2e 0a3d 1e55 29bd cae1 5ebc
000001c0: 9741 50bb 276b f93c 33b7 02bd 53a1 dcbc
000001d0: 3f9e 8fbb a26c 0f3d fc84 fdbc 6a70 7cbc
000001e0: 5716 b03c 069d 383d 4ccd 4a3a 30ed 41bc
000001f0: 9fc2 31bd 3bef 2f3d db8e 043c 1918 a03c
00000200: 569e 843b 152e 8f3c ab0f 4e3d 06b0 3dbd
00000210: d5d7 ddbc 598e e0bc 6272 2bbc ca8b 403d
00000220: f071 b73c 895e bcbc 9288 89ba eb19 e5bc
00000230: 7223 293c 8fe6 813b b7e3 2d3c 4e6b 0b3d
00000240: 998d 3a3d ba3a 0c3b ab2a 0dbd a826 413d
00000250: 4263 2bbd 9e45 3b3d 7230 df3c b563 ac3b
00000260: 8ff1 b8ba 8d35 ccbc a93c 623c 6a38 543d
00000270: 66a7 05bd 4451 00bd b3ca 3e3b a189 823a
00000280: 92d2 233d af19 fe3b 2b5b 373c a454 053d
00000290: 31fc bcbc c7d3 e03c 3bed 95bc b1c4 15bd
000002a0: 4ab6 873c 2e32 873c 348c 143d 8ff3 afbc
000002b0: c819 293c 3b39 803c 6e42 07bd 0415 93bc
000002c0: af90 0e3d fa0c ef3b eebd d03c 7723 4d3c
000002d0: 0ec3 10bd da1d 133b 4a99 673c 7c64 ea3c
000002e0: b014 98bc 7490 b13b 1d58 cabc 8655 11bd
000002f0: 9af4 15bd 7df2 2ebd f168 173c 6756 293d
00000300: 21fa 4a3c 35e0 84bc cbea e3bb c6ea 90bc
00000310: f7fb 9a3c adc1 21bd f0c8 d63b dd64 1b3d
00000320: 592b 1bbc 9500 65bd 9b33 fa3c 828f 4dbb
00000330: c237 31bd 53e1 3bbd 3757 3abc 7dd3 29bd
00000340: 5686 1ebd 4424 533b a600 08bd 1e19 1cbd
00000350: 79ab 64bb b9dc 0dbd bde5 a0bc 1f4d 38bd
00000360: 349c 19bd 55e1 55bd 4f86 103d ca56 b8bb
00000370: 7f82 063d 896f 2cbd 97d1 373c 2143 843c
00000380: 087a 0b3d 85b3 1a3c d9ee 5cbd 5bf9 f0bc
00000390: 7746 c4bc faf9 a63c 82b2 c5bc b6d4 ad3c
000003a0: 8cd6 52bd de15 04bc c2f6 1fbd 04d1 163c
000003b0: cfad 98bc 4f63 27bd f3a9 4dbd f448 993c
000003c0: 69a6 42bc 40a9 603c d291 18bd b701 d93c
000003d0: ddbb 963c 89b7 b13c 4099 16bc 44c3 fdbc
000003e0: 5919 4abd cc75 c23c cd97 273d 77b5 2a3d
000003f0: 6c28 cfbb 229a 4c3d ea20 21bb 4ac5 45bc
0.002932314 0.03767647 0.012160396 0.018138774 -0.037219364 0.02686332 -0.013680086 0.023821345
-0.038241476 -0.010279151 -0.039173108 0.048116025 0.030082334 0.00907876 -0.036772378 0.0076236976
0.03902983 0.016325569 -0.032109804 0.025083657 0.0524427 0.05791913 0.032176316 -0.037364975
-0.014940741 -0.019145167 0.011453465 0.018912388 -0.00032653773 0.02957544 -0.017850826 -0.046556883
0.013795185 -0.049000088 -0.03666118 -0.02244515 -0.04685946 0.016367652 0.034574542 0.0057021705
0.027023755 0.042497892 0.011764115 -0.04297568 -0.036627814 -0.042806473 0.043614883 -0.04743644
-0.039211307 -0.046188235 -0.015502368 0.04977936 0.03316039 -0.03485092 -0.00062669226 0.029874777
-0.015721953 -0.0022128152 -0.04368198 -0.031382058 0.043884948 0.056897484 0.033330414 0.02519956
-0.010809558 -0.044251774 0.05048901 0.062053744 -0.045750033 -0.04800115 -0.0018982328 0.03083846
0.004737058 -0.04802924 -0.007422965 -0.041100975 0.05135749 0.049727723 0.023187123 0.024530824
-0.0028036258 -0.038511716 -0.04572893 0.046015363 0.05369784 -0.00068647304 0.044521622 0.0016090388
-0.037072975 -0.016269322 -0.016549544 -0.009010142 0.029405344 0.024595374 0.004171345 -0.03659545
0.02813367 -0.004361962 0.02292327 -0.019171912 0.013506262 -0.018910626 0.008953841 -0.050300978
-0.012646622 -0.003375145 -0.038636737 -0.021762151 0.015998157 0.033735674 -0.04134094 -0.013603637
-0.0031777376 0.030446602 -0.031912994 -0.026932394 -0.004382878 0.03501571 -0.030947201 -0.015407661
0.021495027 0.045071624 0.000773628 -0.011836335 -0.043398496 0.042952757 0.0080907 0.01954274
0.0040471954 0.017478028 0.05030791 -0.046310447 -0.027080456 -0.027411627 -0.010464283 0.047008313
0.022393197 -0.022994297 -0.0010492972 -0.02796646 0.010323392 0.0039642523 0.0106133735 0.03403788
0.045545194 0.0021397308 -0.03446452 0.047156006 -0.041842707 0.04572069 0.02724478 0.0052609094
-0.0014110076 -0.024927879 0.013808408 0.051811613 -0.032630347 -0.0313275 0.0029112517 0.000995923
0.039995737 0.0077545266 0.01119117 0.032551423 -0.023069473 0.027444733 -0.018301597 -0.036564533
0.016566414 0.01650342 0.03626652 -0.021478442 0.010321088 0.01565229 -0.033022337 -0.017954357
0.03480595 0.007295248 0.02548119 0.0125206625 -0.03534227 0.0022448213 0.014135668 0.028612368
-0.018564552 0.0054188315 -0.024700219 -0.035481952 -0.036610223 -0.042711724 0.009241329 0.041342165
0.012388737 -0.016220191 -0.0069554797 -0.017690074 0.018918974 -0.039491344 0.0065547153 0.037937988
-0.009470784 -0.05590876 0.030542186 -0.0031366055 -0.043266065 -0.045869183 -0.011373333 -0.041461457
-0.03870233 0.003221766 -0.033203743 -0.03810989 -0.0034892245 -0.034634326 -0.019640798 -0.044995423
-0.037502483 -0.052216846 0.035284337 -0.0056255804 0.032839295 -0.042098556 0.011219404 0.01614529
0.034051925 0.009442215 -0.05393872 -0.029415777 -0.023959382 0.02038287 -0.02413297 0.021219593
-0.05147414 -0.008061854 -0.039053686 0.009205107 -0.018637566 -0.040866192 -0.050210904 0.018711545
-0.011880496 0.013712227 -0.03724844 0.026490076 0.018400127 0.021693962 -0.009191811 -0.030976899
-0.04934058 0.02373781 0.040916253 0.041676965 -0.0063219573 0.04995168 -0.0024586269 -0.012070963

layer2.0.bias f4 [32]
00000000: d034 1d3d 3a5a 48bd 2ffa 9cbc ed7c 193d
00000010: 900e 04bd 8704 a0ba 4d25 00bc d7fc 2c3d
00000020: bd9c 04bd 640f 1dbd a513 a23b a4d6 a2bc
00000030: aabe 63bc ba55 453c 2587 9c3c 2951 d53c
00000040: 5b9c 263d fb12 0b3d 6264 3b3d 9e40 053d
00000050: 14da 2d3c a81e 2ebd 026b b23b 1748 13bd
00000060: c370 2a3d 4a38 e8bb 1118 26bc 44d2 1bbd
00000070: f155 143d 7c86 f03a 0a94 c93b bdfb 9dbc
0.038380444 -0.04891417 -0.019162266 0.037472654 -0.03224045 -0.001220838 -0.007821393 0.042233314
-0.03237604 -0.038344756 0.0049461895 -0.01987774 -0.013900438 0.012044365 0.01910741 0.026039677
0.040676456 0.033953648 0.04575003 0.032532327 0.010611076 -0.042509705 0.005444885 -0.035957422
0.041611444 -0.0070867883 -0.010137574 -0.03804232 0.036214773 0.0018350626 0.006151681 -0.019285077

layer2.1.weight f4 [32]
00000000: f54d 833f e696 813f be78 803f cfd3 813f
00000010: 05bc 813f 5c48 813f 95be 823f beca 803f
00000020: ae98 823f b406 813f e67e 803f 9b6f 813f
00000030: 5ac8 813f a15f 813f 6019 803f fa73 823f
00000040: c882 813f 59aa 813f ae92 813f 0e26 823f
00000050: 028a 833f 4b62 823f 8d88 813f 2b79 813f
00000060: 686c 813f 3f0e 813f 1b0c 823f 74a0 813f
00000070: 2841 813f d754 813f 6a80 803f 145c 813f
1.0258166 1.0124176 1.0036848 1.0142764 1.0135504 1.0100207 1.0214411 1.0061872
1.0202844 1.0080171 1.0038726 1.0112184 1.0139267 1.0107309 1.0007744 1.0191643
1.0118036 1.0130111 1.0122888 1.0167863 1.0276492 1.0186247 1.0119797 1.0115103
1.0111208 1.0082473 1.0159944 1.0127091 1.0098009 1.0104016 1.0039189 1.0106225

layer2.1.bias f4 [32]
00000000: 5e55 723b ce93 be3a e1ca 303b 8ddb aa3a
00000010: cf64 c53a 0ed6 493b 228d 2c3b 46ce 143b
00000020: 8d0f 263b c05d c039 b425 863a c0db 7239
00000030: 80e4 cd3a f818 5b3a fed9 7a38 682d 6f3b
00000040: 9b8c a63a 52d1 8c3a ed24 fc39 3e1c d43a
00000050: 192e de39 a7e1 e43a 2bd0 4339 5a51 083b
00000060: 7224 183b 667d 1c3a 4336 ef3a d2df ed3a
00000070: e154 463a 6060 9f3a 677b c83a 93c6 013b
0.0036977152 0.0014539899 0.0026976394 0.0013035402 0.001505995 0.0030797753 0.002632924 0.0022705956
0.0025338859 0.00036690943 0.0010234625 0.00023160782 0.0015708357 0.00083579076 5.9807666e-05 0.003649557
0.0012706699 0.0010743535 0.00048092697 0.0016182733 0.00042377485 0.0017462269 0.00018674198 0.0020800442
0.0023215082 0.00059696136 0.0018250424 0.0018148369 0.00075657485 0.0012159459 0.0015295566 0.0019802197

layer2.1.running_mean f4 [32]
00000000: e483 fa3d 05bc b93e 4111 b3be 561f 0e3e
00000010: 419c 40be 2d06 023e f907 c63d 062a a8be
00000020: 0fd8 17be 4761 6f3d baaf a9be d4fe b53d
00000030: 8d75 783e 045d 183d 25b5 9cbe 65b9 363e
00000040: 0cc5 a13e b138 ef3e 46d9 6b3e b43d 503e
00000050: e65d fcbd ff43 903d 9305 993d 0048 c03d
00000060: 6775 233e 4f60 29be b7e9 803c bcc1 b43e
00000070: 4856 d13c 776a adba 8159 e5be fca4 2e3c
0.122321874 0.3627626 -0.349741 0.13879141 -0.18809606 0.12697668 0.096694894 -0.3284456
-0.14828514 0.05844238 -0.3314188 0.08886495 0.24263592 0.03719808 -0.30606952 0.1784416
0.31595647 0.4672294 0.23032102 0.20336038 -0.12322597 0.07044219 0.07471766 0.09388733
0.15962754 -0.16540645 0.015736444 0.35304058 0.025553837 -0.0013230582 -0.4479485 0.0106594525

layer2.1.running_var f4 [32]
00000000: 1daf 303e d9e2 1c3e 494f a73e 6b28 283e
00000010: c7b5 083e 28fa 443e f6a1 f73d 47a5 b23e
00000020: 692a 073e 7233 0f3e 5bd9 a43e cc1f db3d
00000030: 4fff 293e 2752 833e c811 be3e 10f4 f83d
00000040: d1d3 ce3d b665 383e 7376 2f3e 3e45 983e
00000050: c635 003e 1889 333e 9539 2d3e 8482 1c3e
00000060: 658b 083e 1f75 1b3e 7032 403e 71f3 2b3e
00000070: e481 533e 0ed1 e13d e7e6 ad3e 7785 083e
0.172543 0.1532091 0.32677677 0.16421668 0.13350593 0.19236052 0.120914385 0.34891722
0.13199772 0.13984469 0.3219708 0.10699424 0.16601299 0.25648615 0.3712294 0.12155926
0.100989945 0.1800755 0.17135029 0.29740328 0.12520513 0.17532766 0.16916497 0.15284163
0.13334425 0.15181397 0.1876924 0.16792084 0.20655018 0.11026202 0.33965227 0.13332163

fc.weight f4 [10, 1568]
00000000: 164f f63b a70b 3bbc 4097 66bc 3982 8a3b
00000010: 89af 543c d0a2 db3b 1dff 38bc 562a 9d3c
00000020: 243b a23b f367 313c 5938 cc3b 4426 953c
00000030: 9aee 8ebc 05fc b5bc ea97 353c 9c7b 58bc
00000040: 5eef c1bc 0ed8 4d3b 1791 733c 7963 7d38
00000050: 823b ce3c 9e71 c7bb 23e3 a1bc 12b6 e83c
00000060: 0bea c23b b9ed 343c b880 2c3d b628 7cba
00000070: add9 093b ecb9 be3c d17a 0b3d a701 ff3b
00000080: 3c51 12bc 2262 61bc bb1d 073d df57 643c
00000090: 9406 67bc 8e35 943b 151c c1bc 4460 adbc
000000a0: a79c afbc de31 91bc b953 95bc f980 8d3b
000000b0: 7d62 613c 4143 923c 76a3 62bc ccec 823a
000000c0: 4cd9 88bc b930 7a3c ea68 98bc 1f64 573c
000000d0: 9d72 bd3c 879f bfbc 2001 453c 9f21 ae3c
000000e0: afde 5d3c 4b34 993a 81d1 c5bc 3393 d7bb
000000f0: 7eeb ac3c 0456 b73a d114 d1bc 1737 0f3a
00000100: d7db 10bc 69c5 fdbb 5f87 133d ce74 a2bb
00000110: c185 a13c 0733 cb3b 123b b9ba dd92 81bb
00000120: e03e 6f3c bd56 a43c 13d0 ddbc 5e46 6a3c
00000130: f5b3 05bb b137 e33b 5712 a73c 5dee 763c
00000140: b8a1 07bd a4ed 85bb 5e20 3d3c 7aec 353c
00000150: 7290 dc3b fd46 813c e83a 9bbb 71f6 883b
00000160: 4d20 98bc fc36 e53c 7856 2f3c c7d0 153c
00000170: f6ce 9d3c 1950 afbc 1ab5 7a3b bfe1 2239
00000180: ee16 713c 1a13 e6ba 5e40 b8bc c226 de3b
00000190: f35e 5e3c 501e 073c f1e1 c03b caee 003c
000001a0: 06f2 a33a 912e 0fbc e82b bcbc e824 c6bc
000001b0: aef0 f33b 2319 3cbb 937f 9dbc 1b54 9cbc
000001c0: 28a3 443c 960d 013b d1d1 dcbc ed9b c6bc
000001d0: cad0 c2bc cdb2 96ba 07d0 af3c 9aa4 913c
000001e0: c06e b1bc 59bc 5b3a af78 89bc 1d90 7cbc
000001f0: 4454 a03c cd46 3b3c 2fd7 b3bc 9be1 85bc
00000200: e80b da3b bf71 9fbc 1729 e4bb ed4f 9dbc
00000210: 3ad5 c3bb 7beb 16bc 4aab 2e3c d541 803c
00000220: 3504 8f3c 35e8 733b 1613 b0bb d4ff 7abc
00000230: ee2d c8bc bc4a 4c3c 703e 86bc e4f7 7d3c
00000240: 6c9a 0ebc 640b 8e3c b650 c63c c901 153b
00000250: 86a8 5ebc 8979 4e3c 11f8 ca3c 7e29 64bc
00000260: 3a0d 7fbc 134f 7f3c 1e6c 8bba 1dcc b63b
00000270: f78a 753c 592e 7f3c e41d c9bc 95b6 023c
00000280: 9d93 903c 6828 693c 1755 b23c 07da 843c
00000290: d8dc 0cbd da30 c1bc 0c9a 72bb 2e76 463c
000002a0: ae03 5f3c a1ea 6d3c a247 1abd 9e92 8aba
000002b0: 32f3 98bc 3bc6 92bc cf37 e9bc baf2 9cbc
000002c0: acc1 6ebc 39a5 4bbc e2de 583c acd3 e43c
000002d0: ae71 623c 9c50 aabc 39d9 333a 5042 87bc
000002e0: c8f6 733c 5ab0 1a3c 5535 973b 7063 9dbc
000002f0: 6113 053c 9c7b 6bbc 8080 323c e7f6 99bc
00000300: 885c af3c 81d8 2bbc 4699 1ebb 04f7 b3bc
00000310: 9baa cabc fa53 a53c a442 b63c 3bca e53a
00000320: 7a46 32bc 90a3 843c 7e8c 84bc e860 913b
00000330: 7cac 55bc a667 783c 02de 4fbb c9a6 593c
00000340: acb7 7f3b 8c02 6f3b 3057 e5bb fdcf 143c
00000350: 7787 e1bb 7699 17bc 30fe 3d3c 0635 b63c
00000360: d181 debc 14ca 3ebc fb1c b4bc 8c33 a2bc
00000370: 8cfb 77bc 872b cdbb 8c93 623c f73b 3d3c
00000380: a312 853c 2695 3cbb e46b fe3b ffdc 2abd
00000390: f82c a53c a0c1 8f3b 7799 113c 0864 20bc
000003a0: 9acc f1bb 9998 943c 191e b2ba 82cb 2cbc
000003b0: f62c 0ebc 295b e63b 184a 5a3c 20d0 89bc
000003c0: 0f16 6f3c f60f d83c c4b0 003c 006a b43c
000003d0: f5b9 48bc e947 283a dc10 69bc 9325 993b
000003e0: c56b 9bbb 0b3e c43c 1702 793c a81e ff3b
000003f0: 6781 b3bc 7460 66bc 0812 f03a 2390 3dbc
0.007516752 -0.011416352 -0.014074147 0.0042269495 0.012981304 0.0067027584 -0.0112912925 0.019185226
0.004950898 0.010828006 0.006232303 0.018206723 -0.017447758 -0.022214899 0.011083582 -0.0132130645
-0.02367371 0.0031409296 0.014866135 6.041254e-05 0.02517486 -0.0060865423 -0.019761628 0.02840713
0.0059483103 0.011043006 0.042114943 -0.00096191035 0.0021034286 0.023282014 0.034052674 0.0077821794
-0.008930501 -0.013756307 0.032987338 0.013936966 -0.014100689 0.004522986 -0.02357296 -0.021164067
-0.021437002 -0.017723974 -0.018228399 0.0043183533 0.013756392 0.017854335 -0.013832917 0.0009988784
-0.016705178 0.015270405 -0.018604714 0.013146429 0.023125941 -0.023391498 0.012024194 0.021256266
0.013541861 0.0011688558 -0.02414775 -0.006578827 0.021108385 0.0013987427 -0.025522621 0.0005463226
-0.008841476 -0.0077444804 0.03601777 -0.004957772 0.0197171 0.0062011513 -0.0014131984 -0.003954275
0.014602393 0.020060891 -0.027076757 0.014299003 -0.0020401452 0.006934129 0.020394487 0.015071479
-0.03311321 -0.004087167 0.0115433615 0.011103744 0.0067310864 0.01578092 -0.004737247 0.0041797687
-0.01857009 0.02798032 0.010701768 0.009144015 0.019263726 -0.021400498 0.0038254918 0.00015533621
0.0147149395 -0.00175533 -0.02249163 0.0067795226 0.013572442 0.008246973 0.0058863093 0.007869432
0.0012508042 -0.00873913 -0.022970155 -0.02418752 0.0074444627 -0.0028701506 -0.019225871 -0.019083073
0.01200179 0.0019691936 -0.026955517 -0.024244273 -0.023781199 -0.0011497379 0.0214615 0.017778683
-0.021659255 0.0008382253 -0.01678118 -0.015415219 0.019571431 0.011430454 -0.021953193 -0.016342929
0.0066542514 -0.019463418 -0.006962906 -0.01920315 -0.0059763463 -0.009211416 0.010660956 0.015656391
0.01745806 0.0037217264 -0.005373369 -0.015319783 -0.024435963 0.01246899 -0.016387194 0.015500996
-0.008703809 0.017339416 0.024208408 0.002273666 -0.013589984 0.012602218 0.02477649 -0.013925908
-0.015567118 0.015582818 -0.001063708 0.0055785314 0.014986745 0.015575015 -0.024550386 0.007978101
0.017648512 0.014230825 0.02176909 0.016217245 -0.0343903 -0.023582865 -0.0037018089 0.012113137
0.013611717 0.014521272 -0.03766597 -0.001057226 -0.018670652 -0.01791679 -0.028468994 -0.01915871
-0.014572542 -0.012429529 0.013236733 0.027932964 0.013821049 -0.02079039 0.0006860677 -0.016511112
0.01489038 0.00944146 0.004614512 -0.019212455 0.008122296 -0.0143727325 0.010894895 -0.01879449
0.021406427 -0.01048863 -0.0024200245 -0.021968372 -0.024739554 0.020181645 0.022248574 0.0017531583
-0.010881061 0.016191274 -0.016180273 0.004436601 -0.013041612 0.01516143 -0.003171802 0.013284394
0.003901939 0.0036470024 -0.006998919 0.009082791 -0.0068826037 -0.0092528965 0.011596248 0.02224208
-0.02716151 -0.011644859 -0.021986475 -0.01979997 -0.015135657 -0.0062612924 0.013829123 0.011549941
0.016244238 -0.0028775423 0.0077643264 -0.041714665 0.020163044 0.0043870956 0.0088866865 -0.009789474
-0.0073791267 0.01813917 -0.0013589292 -0.010546567 -0.008677712 0.00702991 0.013323329 -0.016822875
0.0145926615 0.026374798 0.007854644 0.022023201 -0.012251367 0.0006419407 -0.014225211 0.0046736686
-0.0047430717 0.023955366 0.015198252 0.007785637 -0.02191229 -0.014061082 0.0018315921 -0.011570009

fc.bias f4 [10]
00000000: 9559 633b af02 cebb eab5 c7bc 6673 b8bc
00000010: 8534 6bbc cf7f 81bc c464 15bc 9513 8ebc
00000020: 954c 223c e412 8fbc
0.0034690846 -0.006286941 -0.024378736 -0.022515964 -0.014355783 -0.015808014 -0.009118263 -0.017343322
0.009905954 -0.017465062
