LeNet-PyTorch_initial/lenet3.pth (torch, 289440 bytes, 20 tensors)

layer1.0.weight f4 [16, 1, 5, 5]
0	0x3db34fdf	0.087554686
1	0xbe19a70a	-0.15005127
2	0xbea9987d	-0.33124152
3	0xbde7356e	-0.11289488
4	0x3b4eb247	0.0031539367
5	0x3e5e1963	0.21689372
6	0xbe17c2d5	-0.14820416
7	0x3ddc01d6	0.10742538
8	0xbe62553b	-0.22102825
9	0xbd41a26c	-0.04727404
10	0x3e2f5708	0.17123044
11	0x3df01bf9	0.11724085
12	0x3ce43f56	0.027862232
13	0xbc89788f	-0.01678112
14	0x3e06e40a	0.13172927
15	0x3dc26575	0.09492008
16	0x3e079b2d	0.13242789
17	0xbdaa9572	-0.08329286
18	0x3c6cb572	0.014447557
19	0xbd9f5569	-0.077799626
20	0x3de94216	0.11389558
21	0x3d94f668	0.07273561
22	0x3e3c00fe	0.18359753
23	0x3e30fab5	0.17283137
24	0x3da081fa	0.07837291
25	0xbd2fbd8e	-0.042905383
26	0xbcb290bd	-0.021797532
27	0xbd01dc83	-0.031704437
28	0xbe3e9b26	-0.18613872
29	0xbda55624	-0.08073071
30	0xbc29fde0	-0.01037547
31	0xbdfbfca1	-0.123040445
32	0x3ca63d6f	0.020292966
33	0x3dc37a1d	0.09544776
34	0x3e6b0f5e	0.22955081
35	0xbd1d86bd	-0.038458575
36	0xbe87417f	-0.26417157
37	0xbe92cea3	-0.28673276
38	0x3e443aa0	0.19162989
39	0x3ce8c080	0.028412104
40	0xbdb6fb77	-0.08934682
41	0xbd8cd222	-0.06876017
42	0xbe2fde36	-0.1717461
43	0x3cd6501d	0.026161248
44	0x3d753a3a	0.059869982
45	0xbca56084	-0.020187624
46	0xbe997c33	-0.2997757
47	0x3e05f8b4	0.13083154
48	0xbdd35abc	-0.103200406
49	0x3e3f7abb	0.18699162
50	0x3d7e6115	0.062104303
51	0xbd90e2a7	-0.070744805
52	0x3d50cd3b	0.050976973
53	0x3d292463	0.041294467
54	0x3cac34e3	0.021021312
55	0x3e03e45a	0.12880078
56	0x3e2b2294	0.1671241
57	0xbe0210b3	-0.12701683
58	0x3b303931	0.0026889557
59	0xbdcecef8	-0.1009807
60	0x3d617967	0.05504742
61	0xbe171e7f	-0.14757727
62	0xbdfb04c8	-0.12256771
63	0x3e3b8a4e	0.18314478
64	0xbda1a4bd	-0.078927495
65	0xbdd96e62	-0.10616757
66	0xbe0f0480	-0.1396656
67	0x3e2a8305	0.16651542
68	0x3e359e1b	0.17736094
69	0x3dbc0b91	0.091818936
70	0x3e46f3ed	0.19428988
71	0xbd545981	-0.05184317
72	0x3d5d4e38	0.054029673
73	0xbe342028	-0.17590392
74	0x3df817a5	0.12113885
75	0xbea16d73	-0.31528816
76	0xbe62bfcf	-0.22143482
77	0x3e223e7f	0.15844153
78	0x3dad4184	0.08459762
79	0x3da89382	0.0823126
80	0xbe834bbe	-0.25643724
81	0x3c9dce34	0.019263364
82	0x3e43f6ba	0.19137087
83	0x3e20661c	0.15663952
84	0xb9836c99	-0.0002506718
85	0xbdaf1b20	-0.085500956
86	0xbc7b08e9	-0.015321949
87	0xbd266bc9	-0.040630136
88	0xbd903a8a	-0.070424154
89	0x3d539b91	0.05166203
90	0x3d8c5626	0.06852369
91	0xbd9d0730	-0.076673865
92	0x3e038ca8	0.12846625
93	0x3e48fda3	0.19628005
94	0xbbf076a2	-0.007338361
95	0xbd4449a6	-0.0479218
96	0x3db7ac19	0.08968372
97	0x3d5f3443	0.0544932
98	0x3d445ba9	0.047938976
99	0xbe2719e3	-0.16318469
100	0xbdb36dee	-0.08761202
101	0xbe9d7c0d	-0.30758706
102	0xbd06e512	-0.032933302
103	0xbe27c692	-0.16384342
104	0x3e96f4a9	0.29483536
105	0x3e6f691b	0.23379938
106	0xbe642a13	-0.22281675
107	0xbe67bcc6	-0.22630605
108	0xbe614418	-0.21998632
109	0xbde67251	-0.11252273
110	0x3e93d408	0.28872705
111	0x3d636a89	0.05552152
112	0x3dfe6076	0.12420742
113	0xbdbd5b5a	-0.092459396
114	0x3b5871e9	0.003302688
115	0x3dc62251	0.09674514
116	0x3d3c3f8b	0.045959037
117	0xbded99ec	-0.11601624
118	0xbd5eb1f9	-0.054368947
119	0xbdfb532c	-0.12271723
120	0xbd8eb11a	-0.06967373
121	0x3e5a5447	0.21321212
122	0x3d19f9a9	0.03759161
123	0xbe11974c	-0.14217871
124	0xbe3796d6	-0.17928633
125	0xbda7f521	-0.082010515
126	0x3bdd1d44	0.0067478735
127	0x3d8b4b5a	0.068014815
128	0x3ddfc8e7	0.10926991
129	0x3d02865f	0.031866428
130	0x3cc9b476	0.024622183
131	0xbaee3ce0	-0.0018176101
132	0xbd2b1c42	-0.041774996
133	0x3e0df814	0.13864166
134	0x3e510f59	0.20416011
135	0xbd1d8286	-0.038454555
136	0x3d91696c	0.07100186
137	0x3d11322f	0.03544825
138	0x3d9b8358	0.07593411
139	0xbd98466c	-0.07435307
140	0x3de00280	0.10937977
141	0x3cb59e18	0.022170112
142	0xbdf9a0ac	-0.12188849
143	0xbe853230	-0.26014853
144	0x3b057844	0.0020365873
145	0xbe37db07	-0.17954646
146	0xbe73912a	-0.23785844
147	0xbd14f7a7	-0.036368992
148	0xbd527213	-0.05137832
149	0xbd8f6338	-0.07001346
150	0xbe6cb4ac	-0.23115796
151	0xbd9ece44	-0.07754186
152	0xbe3793d3	-0.17927484
153	0x3e0493d7	0.12947021
154	0x3d972ac4	0.07381204
155	0xbe4adf1e	-0.19811675
156	0xbdddffc7	-0.10839801
157	0x3e529bf8	0.2056731
158	0x3e1a64a7	0.15077458
159	0xbe123dad	-0.1428134
160	0xbd9f467f	-0.07777118
161	0xbdb1166b	-0.08646854
162	0x3c5c58c7	0.013448901
163	0xbe215349	-0.15754427
164	0xbcafb205	-0.021447191
165	0xbd9fa578	-0.077952325
166	0xbd79e9b1	-0.06101388
167	0x3e2bafcf	0.16766284
168	0xbe5f174d	-0.21786232
169	0xbe05a962	-0.13052896
170	0x3d092462	0.033481963
171	0x3db70147	0.089357905
172	0x3e3fc21d	0.18726392
173	0x3e3b7bc3	0.1830893
174	0x3e25a7d3	0.16177301
175	0x3e007a70	0.12546706
176	0x3e0005d1	0.12502219
177	0xbc271af8	-0.010199301
178	0x3e2e251a	0.1700634
179	0xbd3ede28	-0.046598583
180	0xbe18d933	-0.14926605
181	0x3db19159	0.08670301
182	0x3e542b51	0.20719649
183	0xbca3d701	-0.019999983
184	0xbcb1e073	-0.021713471
185	0xbdc3502d	-0.09536777
186	0x3d9eabcd	0.07747612
187	0x3d60cb44	0.05488135
188	0x3e554e99	0.20830764
189	0xbe416c70	-0.18889022
190	0xbe1a8c7f	-0.15092658
191	0x3d772df9	0.060346577
192	0x3de1ae29	0.110195465
193	0x3e175219	0.14777412
194	0xbc9bba0a	-0.019009609
195	0xbe6cc7f2	-0.23123148
196	0xbe7d2a5a	-0.24723187
197	0x3e0d65ea	0.13808408
198	0x3da77bf8	0.08177942
199	0xbe0a89cb	-0.13529126
200	0xbe223a9c	-0.1584267
201	0xbe6b4651	-0.22976042
202	0xbe2d0ef9	-0.16900243
203	0x3cc961ea	0.024582822
204	0xbdbf80e4	-0.09350756
205	0xbcf2641b	-0.02958875
206	0x3ddbd991	0.10734857
207	0x3e08a573	0.13344364
208	0xbe00da25	-0.12583216
209	0x3e2fe3c4	0.1717673
210	0xbc400e44	-0.011722151
211	0x3e5b59bf	0.21420954
212	0x3e4e81e9	0.20166744
213	0xbd66c191	-0.056336943
214	0x3e30bc59	0.17259349
215	0x3de71387	0.112830214
216	0xbe2cacfa	-0.1686286
217	0xbe5aa59d	-0.21352239
218	0x3dab1e21	0.08355356
219	0xbce19411	-0.027536424
220	0x3d285f70	0.04110664
221	0xbd53a312	-0.051669188
222	0x3d73a430	0.059482753
223	0xbda576d8	-0.08079308
224	0xbdff74eb	-0.12473472
225	0xbdc414c9	-0.09574277
226	0xbd65263b	-0.055944663
227	0xbd95585b	-0.07292243
228	0x3e5f6ad6	0.21818098
229	0xba324a35	-0.0006801219
230	0xbe52af27	-0.20574628
231	0xbe5d16e5	-0.21590765
232	0x3d8b1b61	0.067923315
233	0xbca25050	-0.019813687
234	0xbe330a92	-0.17484501
235	0xbe17bdfe	-0.1481857
236	0xbbe6365e	-0.007025524
237	0x3e463010	0.19354272
238	0xbbb52085	-0.0055275583
239	0xbdf45fc7	-0.119323306
240	0x3d736ea3	0.059431683
241	0x3db8a379	0.09015555
242	0x3ddb0133	0.10693588
243	0xbe7d4bef	-0.24735998
244	0x3d4c6493	0.049900603
245	0x3e286f4e	0.1644871
246	0xbd059963	-0.032616984
247	0x3d94ab1b	0.07259198
248	0xbe045754	-0.12923938
249	0xbe4684a2	-0.19386533
250	0x3dde2e20	0.108486414
251	0x3da2c545	0.079477824
252	0x3b92bb07	0.004477862
253	0x3def8fc2	0.116973415
254	0xbe975bb1	-0.29562142
255	0xba128e21	-0.0005590637

layer1.0.bias f4 [16]
0	0xbe95e7c0	-0.29278374
1	0xbd70ea43	-0.05881716
2	0x3d208b9b	0.03919564
3	0xbe0a14eb	-0.13484542
4	0x3d917dac	0.07104048
5	0xbdb78f80	-0.08962917
6	0xbe1e3ca1	-0.15452816
7	0xbdbde8a4	-0.09272888
8	0xbe3946aa	-0.18093362
9	0x3c42e5ff	0.011895656
10	0xbe5c0906	-0.21487817
11	0xbe4fa460	-0.20277548
12	0xbe80b408	-0.25137353
13	0xbe179e22	-0.14806417
14	0xbd85dc8c	-0.065362066
15	0x3b5a7eff	0.0033339856

layer1.1.weight f4 [16]
0	0x3f82c81b	1.0217317
1	0x3f85f986	1.0466774
2	0x3f79ecd4	0.97626996
3	0x3f7bdfd3	0.98388404
4	0x3f98f782	1.1950533
5	0x3f8ea67c	1.1144557
6	0x3f871dd4	1.0555978
7	0x3f82a136	1.0205448
8	0x3f82fe2d	1.0233818
9	0x3f905a41	1.1277543
10	0x3f855766	1.0417297
11	0x3f7d17e0	0.98864555
12	0x3f7a3ed2	0.97752106
13	0x3f8ee9e8	1.1165133
14	0x3f9a4ed5	1.2055308
15	0x3f875cc7	1.0575188

layer1.1.bias f4 [16]
0	0xbda38b7f	-0.07985591
1	0xbcfa5fe8	-0.03056331
2	0xbd72b5d5	-0.05925544
3	0xbd8d7341	-0.069067486
4	0xbc0e683c	-0.008691844
5	0x3baa89ac	0.0052044
6	0xbd84370d	-0.064558126
7	0xbd93d14e	-0.07217656
8	0xbce8dde5	-0.02842612
9	0xbce2291e	-0.027607497
10	0xbdb56622	-0.08857371
11	0xbd27c6d3	-0.040961098
12	0xbdae18fa	-0.08500858
13	0xbdb7361f	-0.0894587
14	0xbcd7c3f2	-0.026338551
15	0xbd25fe81	-0.040525917

layer1.1.running_mean f4 [16]
0	0xbd5c1e6b	-0.053739946
1	0xbdc3cbc0	-0.095603466
2	0x3e357690	0.17721009
3	0xbcd07f88	-0.025451437
4	0xbbcbf82a	-0.006224652
5	0xbddaa94e	-0.106768236
6	0xbe150f87	-0.14556704
7	0x3d4c6df7	0.04990956
8	0xbe34f4df	-0.17671536
9	0xbc858203	-0.016297346
10	0xbe498671	-0.19680192
11	0xbdbad7da	-0.09123202
12	0xbd8da6de	-0.06916593
13	0xbddba847	-0.10725456
14	0xbde243d9	-0.11048097
15	0x3d7d4309	0.061831508

layer1.1.running_var f4 [16]
0	0x3da88ec0	0.082303524
1	0x3ce8af02	0.028403763
2	0x3d1289dc	0.035776004
3	0x3d4d9494	0.050190523
4	0x3d0bd898	0.034142107
5	0x3c4edb14	0.0126254745
6	0x3d100649	0.035162244
7	0x3d55a51c	0.052159414
8	0x3c688045	0.014190738
9	0x3c99b327	0.018762184
10	0x3c611701	0.013738395
11	0x3cf16c91	0.029470714
12	0x3d1caf3e	0.03825306
13	0x3c1e301f	0.009655028
14	0x3cc6cee3	0.024268573
15	0x3cbe1561	0.023203554

layer2.0.weight f4 [32, 16, 5, 5]
0	0xba01ec73	-0.0004956193
1	0xba23a62d	-0.00062427187
2	0xbd0881c3	-0.033326875
3	0xbcd3e0b8	-0.02586399
4	0xbd41da69	-0.047327433
5	0x3c4cde96	0.0125042405
6	0xbc0e77d4	-0.008695561
7	0x3d30a5bd	0.04312681
8	0xbc2b1ef2	-0.01044439
9	0xbd88ec17	-0.066856556
10	0xbc973f95	-0.018462935
11	0x3cb83e1b	0.022490552
12	0xbc3e9170	-0.011631355
13	0xbb305292	-0.0026904684
14	0x3bf9623b	0.007610587
15	0x3b01577b	0.001973598
16	0xbd311fdf	-0.043243285
17	0xbc395b80	-0.011313319
18	0x3c4813b5	0.01221173
19	0xbc54ca2e	-0.0129876565
20	0xbd6f01f9	-0.05835149
21	0xbd14472e	-0.036200695
22	0x3dac9da7	0.08428507
23	0x3cdbf238	0.026848897
24	0xbd5f038a	-0.054446734
25	0xbc4fee33	-0.012691068
26	0xbad8af91	-0.0016531815
27	0x3aa9d43a	0.0012956925
28	0xbc040d1e	-0.008059768
29	0xbd2718e6	-0.04079523
30	0xbd6e7cf0	-0.05822462
31	0x3a0e59e2	0.00054302637
32	0xbd9ff149	-0.07809693
33	0xbd9eaf16	-0.07748239
34	0xbd80f536	-0.0629677
35	0x3c54d0e9	0.012989261
36	0x3d80f866	0.06297378
37	0xbda0e592	-0.07856287
38	0xbd6f7e1f	-0.058469888
39	0xbd5c14d5	-0.053730804
40	0x3d1dadac	0.038495705
41	0x3dad1c45	0.084526576
42	0xbd00461d	-0.031316865
43	0xbdc54744	-0.096327335
44	0xbd587301	-0.05284405
45	0xbd204fab	-0.039138477
46	0x3c2871e1	0.010281057
47	0xbdb39bd9	-0.0876996
48	0x3bac0b65	0.005250382
49	0xbe037883	-0.1283894
50	0x3b29549a	0.002583778
51	0xbd2dd849	-0.042442594
52	0xbd249b5e	-0.040187232
53	0x3d36138b	0.04445223
54	0xbbbb9074	-0.0057240073
55	0xbc257537	-0.010098747
56	0xbc380901	-0.011232615
57	0x3cc6964f	0.024241595
58	0x3d358797	0.04431876
59	0x3d2e6cca	0.042584218
60	0xbd3d8078	-0.046265095
61	0xbc8fb867	-0.017543985
62	0x3d1aa16f	0.03775161
63	0x3d082a58	0.033243507
64	0xbcadd635	-0.021220306
65	0xbd1344ec	-0.0359544
66	0x3d326af1	0.04355902
67	0xbc403cdf	-0.011733263
68	0x3bc23ae0	0.0059274286
69	0xbca08e1b	-0.019599011
70	0xbc5e216a	-0.013557771
71	0x3d261aa1	0.04055274
72	0x3c1cc8aa	0.009569326
73	0x3d3b07b5	0.045661647
74	0xbcebf530	-0.028803438
75	0xbb9a0a3a	-0.004700926
76	0xbd09b538	-0.03362009
77	0xbcd319e8	-0.025769189
78	0xbd1b28d9	-0.037880752
79	0x3d56b5e0	0.052419543
80	0xba54610d	-0.000810162
81	0x3d38b06e	0.04509013
82	0x3d583811	0.052787844
83	0x3d3bad8a	0.045819797
84	0x3d0eeef9	0.03489587
85	0x3cb9ccff	0.022680758
86	0x3d2f7136	0.042832576
87	0x3cf9b31c	0.030480914
88	0xbd7e5bd8	-0.062099308
89	0xbd69b7ed	-0.05706017
90	0x3d21a1d5	0.039460976
91	0x3aeacde8	0.0017914148
92	0xbc816a0b	-0.015797636
93	0xbdb072a0	-0.08615613
94	0x3bc5a679	0.006031808
95	0xbd09feb4	-0.03369017
96	0xbbaedfc6	-0.0053367345
97	0xbdd6bbc5	-0.10485033
98	0xbd84443f	-0.064583294
99	0xbd6236fa	-0.05522821
100	0x3d24ad6d	0.040204454
101	0xbcb3d0c3	-0.021950131
102	0xbd63efb9	-0.05564854
103	0xbdf72654	-0.120678574
104	0xbd42dc6e	-0.0475735
105	0xb8feadc6	-0.00012144032
106	0xbd1c7475	-0.038197
107	0xbd65e909	-0.056130443
108	0xbd11dc59	-0.03561053
109	0xbcad9b2a	-0.021192152
110	0xbcc5d1b3	-0.024147844
111	0xbd770760	-0.060309768
112	0xbde03b07	-0.109487586
113	0x3cca880c	0.024723075
114	0x3d5c595c	0.053796157
115	0xbcd85421	-0.026407303
116	0x3ccfd5da	0.025370527
117	0x3c19dd58	0.009391151
118	0x3d9906b9	0.07471985
119	0x3d374a84	0.044748798
120	0x3daa93ea	0.083289936
121	0x3d91471c	0.07093641
122	0x3de9926a	0.114048794
123	0x3d94d5a5	0.07267312
124	0x3d878871	0.06617821
125	0x3d179d8f	0.037015494
126	0xbc2b9c5d	-0.010474292
127	0xbda41381	-0.080115326
128	0xbcb20a11	-0.021733316
129	0xbbc34604	-0.0059592742
130	0xbc130060	-0.008972257
131	0xbd358693	-0.044317793
132	0xbd5d171b	-0.053977113
133	0x3dd28f0b	0.102811895
134	0x3d2ac4b9	0.041691516
135	0xbcdc3c9a	-0.026884366
136	0xbd0430f0	-0.032273233
137	0xbd358c22	-0.044323094
138	0x3c8b5852	0.017009888
139	0x3cf21980	0.029553175
140	0xbd8df974	-0.06932345
141	0xbda85362	-0.08219029
142	0xbce92269	-0.02845879
143	0x3d26f0c6	0.040756963
144	0xbb8b3d81	-0.004249275
145	0x3d250c3e	0.04029488
146	0xbcb8f7e7	-0.022579147
147	0x3c671093	0.014103073
148	0xbcafb3f7	-0.021448119
149	0xbd5db06e	-0.054123335
150	0xbd3cca66	-0.04609146
151	0x3c28e0e1	0.010307522
152	0x3d4dbaef	0.050227102
153	0x3cf610b4	0.030037262
154	0x3c212bb8	0.0098370835
155	0xbd4d4280	-0.050112247
156	0xbc0d7b4e	-0.008635355
157	0x3d875c77	0.06609433
158	0x3c6fe9bd	0.01464313
159	0xbd302c8c	-0.043011233
160	0xbd6d9c20	-0.05801022
161	0xbae3b015	-0.0017371202
162	0x3c62bddf	0.013839214
163	0x3b51ed7c	0.003203242
164	0xbd56182e	-0.052269153
165	0xbcce0fa6	-0.025153946
166	0x3cdac4da	0.026705194
167	0xbd9946ac	-0.07484183
168	0xbd98c1a9	-0.07458813
169	0xbd5a0095	-0.05322321
170	0x3cbf0367	0.023317052
171	0xbd4640b4	-0.04840155
172	0xbd84460c	-0.06458673
173	0xbd356fc6	-0.04429605
174	0xbda477c2	-0.080306545
175	0x3d503d52	0.05083973
176	0x3ca6e742	0.020373944
177	0x3caa4485	0.020784626
178	0xbda072fd	-0.07834432
179	0x3cdb2ebf	0.026755689
180	0xbcb535c6	-0.022120368
181	0xbd5ece3f	-0.05439591
182	0xbd024d53	-0.031812023
183	0x3ceedb41	0.029157283
184	0xbc961727	-0.018321587
185	0x3da0e690	0.07856476
186	0x3be600b9	0.007019129
187	0xbc80ab83	-0.015706783
188	0x3b97a7ce	0.004628158
189	0x3d3a6f52	0.04551632
190	0x3d141e9c	0.036162004
191	0x3d6a3b9d	0.057185758
192	0xbd6674e3	-0.056263816
193	0x3c274c81	0.010211111
194	0x3c04060e	0.008058084
195	0x3d17e50f	0.03708368
196	0x3d50d386	0.050982974
197	0x3bcbe863	0.006222771
198	0x3b4806b4	0.0030521573
199	0xbc00de5b	-0.007865514
200	0x3c2f7f86	0.010711556
201	0xbd8a5536	-0.06754534
202	0xbd75c374	-0.06000085
203	0xbaf4be03	-0.001867235
204	0x3d08d11d	0.03340255
205	0xbd834e37	-0.06411403
206	0x3cd49c8d	0.025953555
207	0x3c456f9f	0.012050538
208	0x3d941920	0.07231355
209	0x3d633141	0.055466894
210	0x3c524f26	0.012836253
211	0x3c672cc0	0.01410979
212	0x3d965adf	0.07341551
213	0x3d3cdb19	0.046107385
214	0x3bcf59e0	0.0063278526
215	0xbd9fe5b1	-0.07807482
216	0xbd8db737	-0.06919711
217	0x3bbddcd9	0.0057941494
218	0x3ce129c2	0.027485732
219	0x3d105f42	0.035247095
220	0xbd0376cd	-0.03209572
221	0xbd72ca39	-0.059274886
222	0x38e07e77	0.00010704708
223	0xbb13b014	-0.002253537
224	0xbb2b6981	-0.0026155415
225	0xbd6c7acc	-0.057734296
226	0xbdb39a18	-0.087696254
227	0xbd9c9f7f	-0.07647609
228	0xbb9cf6bf	-0.0047901566
229	0x3d1439b1	0.03618783
230	0xbd2316ff	-0.039816853
231	0x3d1a06bb	0.037604075
232	0x3d683e39	0.056699965
233	0x3d2c4192	0.04205472
234	0x3d2f2f20	0.04276955
235	0xba5cbd00	-0.0008420497
236	0x3cd232b8	0.02565895
237	0xbcb94f9d	-0.02262097
238	0xbdc2450c	-0.09485826
239	0x3c91a402	0.0177784
240	0x3ca115f4	0.019663788
241	0x3d692009	0.056915317
242	0xbcb96a74	-0.022633769
243	0xbd9b83e3	-0.07593515
244	0x3ca40ac9	0.020024674
245	0x3ca4798c	0.02007749
246	0xbdfa35f3	-0.12217321
247	0xbd99eba5	-0.07515649
248	0x3d4ec7d0	0.050483525
249	0x3e057552	0.13033035
250	0xbd1ae71d	-0.037818063
251	0xbbd9650a	-0.0066343592
252	0x3d705d65	0.058682818
253	0xbcdc17bf	-0.026866792
254	0x3de3e438	0.11127514
255	0xbd9de96b	-0.077105366

layer2.0.bias f4 [32]
0	0xbc874b75	-0.016515473
1	0xbcdccfee	-0.026954617
2	0xbd5f67a1	-0.054542188
3	0x3c5628e7	0.013071275
4	0x3c997013	0.018730199
5	0xbc2a1d39	-0.010382944
6	0x3d17feef	0.037108358
7	0xb9e8b5b0	-0.00044385856
8	0xbd7b564e	-0.061361603
9	0xbd5a2c9a	-0.05326519
10	0xbcffafb8	-0.031211719
11	0x3c3e4a03	0.011614325
12	0xbc3dedcc	-0.01159234
13	0xbcfb1515	-0.030649701
14	0x3c4f2834	0.0126438625
15	0xbdb1f6c7	-0.08689647
16	0x3c3d5a3c	0.011557158
17	0x3b565fa1	0.0032710808
18	0xbc04a34f	-0.008095576
19	0xbbc9229b	-0.0061381585
20	0x3cb174fa	0.021662224
21	0xbcdc239c	-0.026872449
22	0xbad13b2e	-0.0015963071
23	0xbda46f61	-0.08029056
24	0x3c9d7056	0.019218605
25	0xbce98d08	-0.028509632
26	0xbd23417c	-0.039857373
27	0xbd918ba1	-0.0710671
28	0xbcba30de	-0.02272838
29	0xb9b41974	-0.0003435124
30	0x3ca5f0bc	0.020256393
31	0x3cebd1e6	0.02878661

layer2.1.weight f4 [32]
0	0x3f84048f	1.0313891
1	0x3f88f224	1.0698895
2	0x3f8bc3ea	1.0919163
3	0x3f88672c	1.0656486
4	0x3f893229	1.0718433
5	0x3f907ce3	1.1288112
6	0x3f79d1fe	0.9758605
7	0x3f800d3d	1.000404
8	0x3f8c29dc	1.0950274
9	0x3f7eed33	0.9958069
10	0x3f864bee	1.0491922
11	0x3f817a2e	1.0115411
12	0x3f8afb1c	1.0857882
13	0x3f851cc4	1.0399404
14	0x3f8ddedd	1.1083637
15	0x3f81b207	1.0132455
16	0x3f84a4db	1.036281
17	0x3f8e7e39	1.113227
18	0x3f8e88a0	1.1135445
19	0x3f800bc2	1.0003588
20	0x3f8847f4	1.0646958
21	0x3f8afe23	1.0858806
22	0x3f7a85c4	0.9786036
23	0x3f85a3d2	1.0440619
24	0x3f88fc10	1.0701923
25	0x3f899e33	1.0751404
26	0x3f875efe	1.0575864
27	0x3f7c702c	0.9860866
28	0x3f8c6a21	1.0969888
29	0x3f85188a	1.0398114
30	0x3f806fce	1.003412
31	0x3f857d1b	1.0428804

layer2.1.bias f4 [32]
0	0xbd77d3d7	-0.06050476
1	0xbcca51fa	-0.024697293
2	0xbcade810	-0.02122882
3	0xbd7446f3	-0.059637975
4	0xbbc03663	-0.0058658584
5	0xbd88695c	-0.06660721
6	0xbd63cc5c	-0.055614814
7	0xbd661c56	-0.056179367
8	0xbadbdd5c	-0.0016774344
9	0xbd815d73	-0.06316652
10	0xbd714c14	-0.058910444
11	0xbd395ebd	-0.045256365
12	0xbdb294fa	-0.08719821
13	0xbd76eb72	-0.060283132
14	0xbd1f9f8c	-0.038970515
15	0xbd8825d0	-0.06647837
16	0xbd931abc	-0.071828336
17	0xbd5605ef	-0.052251752
18	0xbd65e5e8	-0.05612746
19	0xbd938c88	-0.072045386
20	0xbbac9175	-0.0052663633
21	0xbd6e2b49	-0.05814675
22	0xbd7ff792	-0.06249196
23	0xbd6a6f67	-0.057235148
24	0xbd7c9daa	-0.061673798
25	0xbd1e3363	-0.038623225
26	0xbd7405d2	-0.059575863
27	0xbda38fde	-0.07986425
28	0xbcf16df2	-0.029471371
29	0xbc771308	-0.015080221
30	0xbd3da690	-0.046301425
31	0xbd645ed0	-0.055754483

layer2.1.running_mean f4 [32]
0	0xbe3785b7	-0.17922102
1	0xbf0832cc	-0.5320251
2	0xbf0cedc7	-0.5505032
3	0xbc713c78	-0.0147238895
4	0xbfa29ca2	-1.270405
5	0xbd5f1783	-0.054465782
6	0xbed123ec	-0.4084772
7	0x3f811334	1.0083985
8	0xbed38399	-0.4131134
9	0xbdc4d877	-0.096116
10	0xbdc049d3	-0.09389081
11	0x3e9944a2	0.29935175
12	0xbec004b2	-0.37503582
13	0xbe0ae827	-0.13565122
14	0xbd8b9a53	-0.068165444
15	0xbd174d0a	-0.036938705
16	0x3edec4b9	0.43509462
17	0xbeab310a	-0.3343585
18	0xbe93107f	-0.28723523
19	0x3d81661e	0.063183054
20	0xbf2ce4e9	-0.6753679
21	0xbea34c9d	-0.3189439
22	0x3f7b87a1	0.9825383
23	0xbd0209d1	-0.031747643
24	0xbe4e1bc1	-0.20127775
25	0xbce0038a	-0.027345438
26	0xbe3de185	-0.1854306
27	0x3d95c139	0.07312245
28	0x3e328270	0.1743257
29	0xbf3d9bb9	-0.7406574
30	0x3ed8a234	0.4231125
31	0xbd1f8308	-0.03894332

layer2.1.running_var f4 [32]
0	0x3e9bdbc0	0.30441093
1	0x3ec3c53e	0.3823642
2	0x3f0a97c2	0.54137814
3	0x3f007047	0.5017132
4	0x3f61adfa	0.8815609
5	0x3f5a50fe	0.85279834
6	0x3f20ce12	0.6281444
7	0x3f347bea	0.7050158
8	0x3f123432	0.57110894
9	0x3f2bd5d0	0.67123127
10	0x3eff2fce	0.4984116
11	0x3ef50b80	0.47860336
12	0x3f0355c8	0.51302767
13	0x3efbba2a	0.4916547
14	0x3f394e40	0.72385025
15	0x3eeec5f8	0.46635413
16	0x3f458c98	0.77167654
17	0x3ed2b7ce	0.41155857
18	0x3f0909ec	0.53530765
19	0x3ec52bcc	0.38509977
20	0x3f25df77	0.64794105
21	0x3ea4d1a4	0.32191193
22	0x3f42fcec	0.7616718
23	0x3ef8b495	0.48575273
24	0x3f5c9b00	0.8617401
25	0x3ebc2a85	0.3675119
26	0x3f1df22e	0.6169766
27	0x3f0c9f4c	0.5493057
28	0x3f2d2e9d	0.6764925
29	0x3f2e46ec	0.6807697
30	0x3f405e87	0.7514424
31	0x3f1f37af	0.6219434

layer3.0.weight f4 [64, 32, 5, 5]
0	0x3c7fb8a1	0.015607984
1	0xbd8857d4	-0.06657377
2	0xbc221deb	-0.009894828
3	0xbd73b78f	-0.059501227
4	0xbd7edb72	-0.062220998
5	0xba00281b	-0.00048887887
6	0xbd1302a6	-0.035891198
7	0x3bc8fe94	0.0061338637
8	0x3c526071	0.012840376
9	0xbd1ecd38	-0.03876993
10	0xbce6da2d	-0.028180206
11	0xbc259e67	-0.010108567
12	0x3bae3aa4	0.005317049
13	0xbba11978	-0.004916366
14	0xbd508cfd	-0.050915707
15	0x3cf4a907	0.029865755
16	0xbd090002	-0.033447273
17	0x3b4f4157	0.003162464
18	0xbd5321be	-0.05154585
19	0xbd2f7c81	-0.042843346
20	0xba98bcce	-0.0011652948
21	0x3c026750	0.007959202
22	0xbca32de8	-0.01991935
23	0xbd3d82f9	-0.046267483
24	0xbd4ce142	-0.05001951
25	0xbca1556a	-0.019694049
26	0x3d7adba6	0.06124463
27	0x3df7e4a2	0.12104155
28	0x3d6402d4	0.05566676
29	0x3cf00016	0.029296916
30	0xbc2f7523	-0.01070908
31	0x3c801cd0	0.015638739
32	0x3d388ef0	0.04505819
33	0xbce68869	-0.028141217
34	0xbd1b952f	-0.03798407
35	0xbc40e3ec	-0.011773091
36	0x3c0d5564	0.008626316
37	0x3d928162	0.07153584
38	0x3cd2a734	0.025714494
39	0xbc598b8c	-0.0132778995
40	0x3bdf9d4c	0.006824171
41	0xbd912a70	-0.070881724
42	0xbcddde1a	-0.027083445
43	0x3cac6edb	0.021048954
44	0xbbf5f413	-0.0075059026
45	0x3d349e85	0.04409649
46	0xbd0dcfdf	-0.03462207
47	0xbde64ad8	-0.11244744
48	0xbcb7801f	-0.02239996
49	0x3d86b9ff	0.06578445
50	0x3cce21b6	0.025162559
51	0xbc4b877b	-0.012422438
52	0x3d03a705	0.032141704
53	0xbd8f36e6	-0.06992893
54	0xbd760058	-0.06005892
55	0x3ab5aa38	0.0013859933
56	0x3cd2ddad	0.025740469
57	0x3d6f3a22	0.05840505
58	0xbbb276da	-0.005446297
59	0x3c0965bb	0.008386071
60	0xbd8fb400	-0.07016754
61	0xbc24d6fa	-0.01006102
62	0x3d177c06	0.036983512
63	0xbc32b954	-0.0109084435
64	0xbd87c0fd	-0.066286065
65	0xbd5797f9	-0.052635167
66	0xbda35830	-0.07975805
67	0xbdad69f8	-0.084674776
68	0xbdacc93d	-0.08436821
69	0x3d12040e	0.035648398
70	0x3d81d898	0.0634014
71	0x3b8a6bc5	0.004224273
72	0x3cbb7a4b	0.022885462
73	0xbc1f4426	-0.009720838
74	0x3b845c97	0.004039358
75	0x3d8870ab	0.06662115
76	0x3b22b4a6	0.0024826913
77	0xbce04b9a	-0.0273798
78	0x3cf82597	0.030291362
79	0xbc8004ef	-0.015627353
80	0x3d590d02	0.05299092
81	0xbbd0af62	-0.0063685635
82	0xbd5afa6a	-0.05346147
83	0xbb135092	-0.0022478444
84	0xba2d6560	-0.00066145323
85	0xbd1c5b67	-0.038173106
86	0xbbdf9ddc	-0.006824238
87	0x3d23b1f5	0.039964635
88	0xbcd206d4	-0.025638022
89	0xbbd50b47	-0.0065015885
90	0xbd9913f9	-0.074745126
91	0xbbc28eb6	-0.0059374226
92	0x3bd960e1	0.0066338633
93	0x3cab5b07	0.020917429
94	0x3c297563	0.010342929
95	0x3d8a9365	0.067663945
96	0xbd569ed1	-0.052397553
97	0x3d17a3a3	0.03702129
98	0x3d892484	0.06696418
99	0xbd165189	-0.03669885
100	0x3d8b326b	0.06796726
101	0xbd13f1e9	-0.036119375
102	0x3c2a42d7	0.010391912
103	0xbc906f64	-0.01763124
104	0xbd812064	-0.06305006
105	0xbd18469e	-0.03717672
106	0xbcdf3e07	-0.027251257
107	0xbcb8cb9d	-0.022558028
108	0x3c07cc87	0.008288509
109	0xbb87bae1	-0.0041421507
110	0xbcde1ea6	-0.027114224
111	0x3b54f18d	0.0032492608
112	0x3ccda9f3	0.025105452
113	0x3de9c5f2	0.11414708
114	0x3c067853	0.0082073985
115	0x3cbc700a	0.023002643
116	0xb6b59d88	-5.4125594e-06
117	0x3d113127	0.035447266
118	0x3c85e604	0.016345032
119	0x3d0aa7f1	0.033851568
120	0x3d17f07c	0.03709458
121	0x3d82fd84	0.063960105
122	0x3d50ecd5	0.05100711
123	0x3cdc94a5	0.026926348
124	0xbc63c9f0	-0.013903126
125	0xbd5c5132	-0.05378837
126	0xbbe7d7af	-0.007075272
127	0x3d8c946c	0.06864247
128	0xbcfa1404	-0.030527122
129	0x3c245828	0.010030784
130	0xbd38a726	-0.04508128
131	0xbc5ec24c	-0.013596129
132	0xbca80f73	-0.02051518
133	0x3c9384b0	0.018007606
134	0x3d4bc60a	0.04974941
135	0x3c8794f9	0.016550528
136	0x3d5bf5f2	0.05370135
137	0xbc7eb8ca	-0.015546987
138	0x3d57007a	0.05249069
139	0x3ce6e5c1	0.028185727
140	0xbb68f5c6	-0.0035546883
141	0x3b1b900f	0.0023736989
142	0x3d3ea690	0.046545565
143	0xbd077ba8	-0.033076912
144	0xbc2fd1ff	-0.010731219
145	0xbd015fe0	-0.031585574
146	0xbc17a3ae	-0.009255333
147	0x3d567a46	0.052362703
148	0xbc029c02	-0.0079717655
149	0xbdd3333c	-0.103125066
150	0xbd073513	-0.0330096
151	0xbc9d14a4	-0.019174881
152	0xbd9171f7	-0.07101815
153	0xbcd7af7b	-0.026328793
154	0x3caefde7	0.021361304
155	0xbc835fbd	-0.016036863
156	0xbd16ef6c	-0.036849424
157	0xbd4a1dbe	-0.04934477
158	0xbbde24ab	-0.0067792735
159	0xbd06a8c7	-0.032875802
160	0xbce35e76	-0.027755003
161	0x3c3d1b48	0.011542149
162	0x3ce15c94	0.027509965
163	0xbbc10357	-0.0058902907
164	0xbd333124	-0.043748036
165	0xbc2ccf9b	-0.010547544
166	0xbc133327	-0.008984364
167	0x3bfd3b28	0.0077279992
168	0xba45004d	-0.00075149984
169	0xbd5c179a	-0.053733446
170	0xbd110bae	-0.03541153
171	0xbcc041ab	-0.023468813
172	0xbd5221c1	-0.05130172
173	0x3b5349be	0.0032239999
174	0x3d81a0da	0.06329508
175	0xbd07d44f	-0.033161458
176	0xbd1bdfba	-0.03805516
177	0x3cd7945c	0.02631586
178	0xbd534433	-0.05157871
179	0x3d10ade3	0.03532208
180	0xbcd74860	-0.026279628
181	0xbc93606a	-0.01799031
182	0xbd32029c	-0.04345952
183	0x3c56d125	0.013111387
184	0x3d5f2c6c	0.054485723
185	0x3d1163c2	0.035495527
186	0xbd345375	-0.044024903
187	0xbb2b6c61	-0.0026157128
188	0xbc299f83	-0.010352972
189	0x3cfc191c	0.030773692
190	0x3d0ce4b9	0.034397814
191	0x3d84f49d	0.06491969
192	0xbc58b879	-0.013227575
193	0xbb934d30	-0.0044952855
194	0xbcc95a1a	-0.024579097
195	0xbc45079e	-0.012025742
196	0xb92166c6	-0.00015392443
197	0x3d61958d	0.055074263
198	0xbc9ae2f7	-0.018907053
199	0x3d0cc921	0.0343715
200	0xbc86044c	-0.01635947
201	0xbdc7a7d8	-0.097488105
202	0xbdc2805c	-0.09497139
203	0xbca4538a	-0.020059366
204	0xbb211329	-0.002457807
205	0x3d292ccc	0.041302487
206	0xbd721f62	-0.05911196
207	0xbd37e57b	-0.044896584
208	0xbc5cdc43	-0.013480249
209	0x3cae69c6	0.021290671
210	0x3b3bf930	0.0028682463
211	0xbc3caf1e	-0.011516361
212	0x3ca5ee9d	0.020255381
213	0x3d8ebed9	0.06969995
214	0x3bd29be4	0.006427275
215	0x3c325d23	0.010886463
216	0x3d1c2f6d	0.038131166
217	0x3d964f58	0.07339352
218	0xbd8f1e88	-0.06988245
219	0x3b681153	0.0035410717
220	0x3d805475	0.06266109
221	0xbc7415d5	-0.014897783
222	0xbdabea35	-0.08394281
223	0xbbe55191	-0.006998249
224	0xbc6daeac	-0.014506977
225	0xbb8991d3	-0.004198292
226	0x3cefeef2	0.029288743
227	0x3c79a45b	0.015236939
228	0xbcb7d1b1	-0.022438856
229	0xbc94929a	-0.018136311
230	0x3d918e1b	0.071071826
231	0x3c1eddef	0.009696468
232	0xbd1a0b10	-0.037608206
233	0x3d0b9790	0.03408009
234	0xba8704a7	-0.0010301069
235	0x3c861059	0.016365217
236	0xbd283aa8	-0.041071564
237	0x3d22f56a	0.039784826
238	0xbccc523c	-0.024941556
239	0xbd3b2dcd	-0.045697976
240	0x3cde46d6	0.027133387
241	0xbd1941b0	-0.03741616
242	0x3c41c2f0	0.011826262
243	0xbc74a32a	-0.0149314795
244	0xbc2e32f0	-0.010632262
245	0xbc134f4f	-0.008991077
246	0x3d901d92	0.0703689
247	0x3cf20c9d	0.02954703
248	0xbd3bab77	-0.04581782
249	0xbd328bd3	-0.043590378
250	0xbb565dc0	-0.0032709688
251	0x3c0a8efc	0.008456942
252	0x3d57e209	0.0527058
253	0x3d0b62ec	0.034029886
254	0x3c97773c	0.018489473
255	0xbcbfabbb	-0.023397317

layer3.0.bias f4 [64]
0	0x3bb57973	0.0055381595
1	0x3b618a44	0.0034414688
2	0x3c24ff4b	0.010070632
3	0x3b98a3ff	0.0046582217
4	0xbca57d5c	-0.020201378
5	0xbcc7e0e4	-0.024399228
6	0xbd18ed57	-0.03733572
7	0x3c7f3b94	0.015578169
8	0xbb61ef92	-0.003447507
9	0x3c52d3f7	0.012867919
10	0x3cba70d7	0.022758884
11	0xbcf8e265	-0.03038139
12	0xbd0f59a0	-0.034997582
13	0xbd65babd	-0.05608629
14	0xbd229d27	-0.039700653
15	0xb9b397dc	-0.00034254685
16	0xbcf01fee	-0.0293121
17	0xbb564c28	-0.0032699201
18	0xbce8185b	-0.028331926
19	0xbc9052a3	-0.01761753
20	0x3ccedb72	0.025251124
21	0xbcc94ff1	-0.024574252
22	0xbc95e248	-0.018296376
23	0x3a76d7d8	0.00094163185
24	0xbd252ad3	-0.040324043
25	0xbb3dada7	-0.0028942616
26	0x3d07b1a4	0.033128396
27	0x3c16c252	0.009201603
28	0x3a9294b7	0.0011183236
29	0xbcc7f458	-0.024408504
30	0xbc6addac	-0.014335077
31	0x3d2eb2ba	0.042650916
32	0x3d093857	0.033500995
33	0xbb472ffc	-0.003039359
34	0xb843bdf1	-4.666852e-05
35	0xbbb583a0	-0.0055393726
36	0x3c84574f	0.016154913
37	0x3b38720e	0.0028144154
38	0xbcdcfa3c	-0.02697479
39	0x3c612005	0.013740544
40	0xbbe6e63b	-0.0070464886
41	0xbc888b5d	-0.016668016
42	0xbc0fde52	-0.008781033
43	0xbbc94678	-0.0061424337
44	0x3c9d922c	0.01923474
45	0x3bee65ef	0.007275335
46	0xbc447d6a	-0.011992792
47	0xba3b31da	-0.00071409123
48	0x3d11a008	0.03555301
49	0xbd21c2df	-0.039492484
50	0x3ce98a26	0.028508257
51	0x3c879c2d	0.016553963
52	0x3cb4213d	0.021988505
53	0xba8c28e7	-0.0010693342
54	0xbcc16398	-0.02360706
55	0xbcc3be09	-0.023894327
56	0xbcda156b	-0.026621541
57	0x3bed45e3	0.007240997
58	0xbcb81fa1	-0.02247602
59	0xbbb6b819	-0.0055761454
60	0xbc12a68c	-0.008950841
61	0x3ca37b8d	0.019956375
62	0xbcbd2343	-0.023088103
63	0xbd21c141	-0.039490942

layer3.1.weight f4 [64]
0	0x3f8b136e	1.0865304
1	0x3f8c5301	1.0962831
2	0x3f8b3c7b	1.0877832
3	0x3f9086f5	1.1291186
4	0x3f901615	1.1256739
5	0x3f8a6dc5	1.0814749
6	0x3f858394	1.043078
7	0x3f90f345	1.132424
8	0x3f8ee931	1.1164914
9	0x3f8a8537	1.0821904
10	0x3f8e0914	1.109652
11	0x3f8dc2c6	1.1075065
12	0x3f92a955	1.1457926
13	0x3f8bc04e	1.0918062
14	0x3f8ce1b2	1.1006377
15	0x3f8c1810	1.0944843
16	0x3f8a929a	1.0825989
17	0x3f90a525	1.1300398
18	0x3f88aebc	1.0678325
19	0x3f90fcc3	1.1327137
20	0x3f904cd0	1.1273441
21	0x3f89136a	1.070905
22	0x3f8c0dc4	1.0941701
23	0x3f93aefb	1.1537775
24	0x3f879d91	1.059496
25	0x3f8c6ba9	1.0970355
26	0x3f8ff71a	1.1247284
27	0x3f8c353a	1.0953743
28	0x3f8f7c8f	1.1209887
29	0x3f84afcd	1.036615
30	0x3f8c63e3	1.0967983
31	0x3f9587ac	1.1682029
32	0x3f90a04e	1.1298921
33	0x3f8fa56a	1.1222355
34	0x3f8d2d5e	1.102947
35	0x3f89d968	1.0769472
36	0x3f99feac	1.2030845
37	0x3f8c3be0	1.0955772
38	0x3f88849e	1.0665472
39	0x3f8f9cef	1.1219767
40	0x3f9467e7	1.1594208
41	0x3f906fb2	1.1284087
42	0x3f8b0277	1.0860127
43	0x3f903fb9	1.1269447
44	0x3f8c1e5e	1.0946767
45	0x3f91ff05	1.1405951
46	0x3f8f67ed	1.1203591
47	0x3f8c7d57	1.0975751
48	0x3f8c6988	1.0969706
49	0x3f864e86	1.0492713
50	0x3f8a7d95	1.0819575
51	0x3f8ee2e4	1.1162992
52	0x3f8a748d	1.0816818
53	0x3f887b53	1.0662636
54	0x3f8a4bad	1.0804344
55	0x3f8c9ccf	1.0985354
56	0x3f8a7150	1.081583
57	0x3f8c7f8b	1.0976423
58	0x3f954017	1.1660184
59	0x3f896861	1.0734979
60	0x3f8b356c	1.0875678
61	0x3f87b660	1.0602531
62	0x3f95dab9	1.1707374
63	0x3f8d3535	1.1031862

layer3.1.bias f4 [64]
0	0x3c99c46f	0.018770425
1	0x3c2b3ec2	0.010451974
2	0x3c00b37a	0.007855291
3	0x3c76c12d	0.015060705
4	0x3b5736df	0.0032839102
5	0x3bc4a8ee	0.0060015833
6	0xbbb9f1d6	-0.005674581
7	0x3d76373c	0.06011127
8	0x3b7cf447	0.003859775
9	0x3bf8f1b1	0.0075971712
10	0x3c3daacd	0.011576367
11	0x3bfd4f5d	0.007730408
12	0xbb941b7c	-0.004519878
13	0x3c833ba4	0.01601965
14	0x3c5386bd	0.012910542
15	0x3c277a60	0.010222048
16	0x3ba10108	0.004913453
17	0xbbecfa6f	-0.0072320024
18	0x3b97a7d1	0.0046281596
19	0x39a33af8	0.00031133718
20	0x3c8a0bf8	0.01685141
21	0x3c8f6bac	0.017507397
22	0x3c5551b5	0.013019969
23	0x3cce0763	0.025150007
24	0xbc42dc13	-0.01189329
25	0x3d14f37c	0.036365017
26	0x3ca6b01a	0.020347644
27	0x3ce8acd9	0.028402733
28	0x3c0c8ed0	0.008578971
29	0x3c0c1863	0.008550736
30	0xbc15a404	-0.009133343
31	0x3c9eb1fe	0.019371983
32	0x3c005086	0.007831698
33	0x3cc86441	0.024461867
34	0x3d00087f	0.031258103
35	0x3d3384c3	0.043827783
36	0x3cf817b4	0.03028474
37	0x3c5d39a6	0.013502514
38	0x3c977d52	0.018492375
39	0x3b345444	0.0027516047
40	0x3c703aaa	0.014662424
41	0x3c6387bf	0.013887345
42	0x3bac4953	0.0052577644
43	0x3ca14dff	0.019690512
44	0x3cd2fae5	0.025754401
45	0x3bc483f3	0.005997175
46	0xbaf91abd	-0.0019005161
47	0x3c1c454b	0.009538005
48	0x3cbfc80d	0.023410821
49	0x3c5f3ca5	0.013625299
50	0x3ca61066	0.020271491
51	0x3c92d8bb	0.01792561
52	0x3bd7f31a	0.0065902593
53	0x3bac88d3	0.005265334
54	0xbbef5231	-0.007303499
55	0x3c34ca6c	0.011034589
56	0x3c2c5294	0.010517735
57	0x3c5de3b6	0.01354306
58	0xba8a16db	-0.0010535376
59	0x3c0a69a1	0.008448035
60	0xbb92bcca	-0.004478072
61	0xba0628f1	-0.0005117795
62	0x3c962f25	0.018333027
63	0x3c6f6e32	0.014613675

layer3.1.running_mean f4 [64]
0	0x3da6abc7	0.08138233
1	0x3f1824ac	0.59430957
2	0x3e39b73b	0.18136303
3	0x3e46c366	0.19410476
4	0x3ddf3b4c	0.10899982
5	0x3e855be9	0.26046684
6	0x3d9281ac	0.07153639
7	0x3edd7690	0.43254519
8	0x3eee964f	0.4659905
9	0x3e8b54e5	0.27213207
10	0x3f14a5d9	0.58065563
11	0x3eaedc5a	0.3415249
12	0x3eca399b	0.39497074
13	0xbe10c4d7	-0.14137588
14	0x3e315539	0.17317666
15	0x3e50f311	0.20405222
16	0xbdbb91a8	-0.09158641
17	0x3ed84a91	0.4224439
18	0x3f117bbd	0.56829435
19	0x3e9787c7	0.29595777
20	0x3ee521bf	0.4475231
21	0x3edf395c	0.4359845
22	0xbefdf973	-0.49604377
23	0x3eea2e94	0.4573866
24	0x3ed0581e	0.40692228
25	0xbe4b77ac	-0.1986987
26	0x3f0e658c	0.556237
27	0x3e1f221d	0.15540357
28	0xbcb2a6ac	-0.021807991
29	0xbebc7656	-0.36809033
30	0xbe804522	-0.25052744
31	0x3e6cfa4f	0.2314236
32	0x3edf5cae	0.43625396
33	0x3d80dccb	0.06292113
34	0x3e9bdb55	0.30440775
35	0x3e1bb421	0.15205432
36	0xbd51ea09	-0.051248584
37	0x3f34f90f	0.70692533
38	0xbe00d49c	-0.12581104
39	0x3f503997	0.81337875
40	0x3e94ef43	0.29088792
41	0x3b28e1b1	0.0025769288
42	0xbaa0ed66	-0.0012277781
43	0xbef60cba	-0.48056585
44	0x3e2bfc33	0.16795425
45	0x3e84adfa	0.25913984
46	0xba2fc366	-0.0006704837
47	0xbdebcbec	-0.115135044
48	0x3e98023b	0.29689202
49	0x3f1a1052	0.6018115
50	0xbed1240c	-0.40847814
51	0x3e01fac9	0.12693323
52	0x3ebaf954	0.36518347
53	0x3d8623f9	0.0654983
54	0x3f028a8a	0.50992644
55	0x3f10e251	0.5659533
56	0x3ed03495	0.40665117
57	0xbe5129d5	-0.20426114
58	0x3cb3df87	0.021957172
59	0x3e14e86f	0.14541791
60	0x3f82ac55	1.0208842
61	0x3c27de8d	0.010245931
62	0xbd87fd48	-0.066401064
63	0xbe25c0ca	-0.16186824

layer3.1.running_var f4 [64]
0	0x3e6acc85	0.2292958
1	0x3e9f4130	0.31104422
2	0x3eb0fe44	0.3456899
3	0x3e86c639	0.26323107
4	0x3e9d90da	0.30774575
5	0x3ea82ab3	0.32845077
6	0x3eb9108f	0.36145446
7	0x3e9cbe4d	0.30613938
8	0x3f07683d	0.5289343
9	0x3ec77226	0.38954276
10	0x3ea2bb99	0.3178375
11	0x3e8c9399	0.27456358
12	0x3eb60baf	0.3555579
13	0x3eb48081	0.3525429
14	0x3e8ed2be	0.2789516
15	0x3ebb2240	0.36549568
16	0x3e9dadac	0.30796564
17	0x3eaefa9e	0.3417558
18	0x3eb0677c	0.34453952
19	0x3eac0f0a	0.33605224
20	0x3eb48e39	0.35264757
21	0x3e9d015f	0.3066511
22	0x3eafd979	0.34345606
23	0x3e9b304d	0.30310288
24	0x3eba3f21	0.3637629
25	0x3eb93baa	0.36178333
26	0x3e7ca82f	0.24673532
27	0x3ea7ab5e	0.3274793
28	0x3ecf685c	0.40509307
29	0x3e702674	0.23452169
30	0x3ec86eaa	0.3914693
31	0x3ec52ec1	0.38512233
32	0x3e904625	0.28178516
33	0x3ec3dc8c	0.382542
34	0x3eafe0aa	0.34351093
35	0x3eadaf6e	0.33922905
36	0x3ed43e74	0.41453898
37	0x3ea54ecf	0.3228669
38	0x3eb4c674	0.35307658
39	0x3eac98cf	0.33710334
40	0x3ea1c847	0.31598112
41	0x3ea4c375	0.32180372
42	0x3e918db0	0.2842841
43	0x3ea4bd0b	0.32175478
44	0x3e9e279e	0.308896
45	0x3eb76e1e	0.358262
46	0x3ecbac29	0.39779785
47	0x3eb801fe	0.3593902
48	0x3e6d8977	0.2319697
49	0x3e7c941a	0.24665871
50	0x3ea8598a	0.32880813
51	0x3e766d5a	0.24065152
52	0x3e8e1188	0.2774775
53	0x3e811a2c	0.2521528
54	0x3eae11f2	0.33998066
55	0x3eabf32d	0.33583966
56	0x3e87c8f2	0.26520497
57	0x3ea115ee	0.31462044
58	0x3e9a75c2	0.30167967
59	0x3ea6d65d	0.3258542
60	0x3e8cb784	0.2748376
61	0x3ea077b7	0.31341335
62	0x3ea0f41d	0.31436244
63	0x3ea5d704	0.32390606

fc.weight f4 [10, 576]
0	0x3bdf213c	0.006809382
1	0xbcf58863	-0.02997226
2	0xbd0e89d3	-0.03479941
3	0x3c8b16f1	0.016978713
4	0xbc91fa91	-0.017819675
5	0xbc81dfde	-0.015853819
6	0xbcff2d6f	-0.031149594
7	0x3d07fb1f	0.033198472
8	0x3d8f2d93	0.069911145
9	0x3d2cdf0e	0.04220491
10	0xbcafd71a	-0.021464873
11	0xbce68142	-0.028137807
12	0xbceeb441	-0.029138686
13	0xbcadf8b9	-0.021236764
14	0xbcef1486	-0.029184591
15	0xbc7a99ad	-0.015295428
16	0x3c980058	0.018554851
17	0xbd5139f3	-0.051080655
18	0x3bc7b813	0.0060949414
19	0x3c1674cb	0.009183119
20	0xbca5547c	-0.020181887
21	0x3d5be979	0.053689454
22	0x3bb0a897	0.005391191
23	0xbd94fc51	-0.07274688
24	0x3cc26590	0.02373007
25	0xbd271a74	-0.040796712
26	0x3d05b296	0.032641016
27	0xbdb5e9dc	-0.08882496
28	0xbc81bedc	-0.01583808
29	0x3d48617c	0.048921093
30	0xbb0eab12	-0.0021769446
31	0xbc707adc	-0.014677729
32	0xbd06e5fb	-0.03293417
33	0x3dc96fc5	0.098357715
34	0xbda83ecc	-0.082151026
35	0x3c9eeb1c	0.019399218
36	0x3aef5129	0.001825844
37	0xbd1eea74	-0.03879781
38	0x3b918c6a	0.0044417875
39	0xbd1ad277	-0.03779837
40	0x3c56a870	0.013101682
41	0xbda1bdc4	-0.07897523
42	0xbd05aa99	-0.032633398
43	0x3c6b5b18	0.01436498
44	0xbd0ec3c9	-0.034854684
45	0xbc118598	-0.008881949
46	0xbdae8eab	-0.085233055
47	0x3d4ba46a	0.049717344
48	0xbce1e3fa	-0.027574528
49	0x3cd637d2	0.026149664
50	0x3da274e2	0.0793245
51	0x3d041795	0.032249052
52	0xba3a0a6d	-0.00070968905
53	0xbba57841	-0.005049736
54	0x3c9976bb	0.018733373
55	0xbd1f2710	-0.038855612
56	0x3cf20823	0.029544896
57	0xbc5a1d7a	-0.013312692
58	0xbc595540	-0.013264954
59	0x3cc14af1	0.023595305
60	0x3bebef30	0.007200144
61	0x3c924c21	0.017858567
62	0x3d8794ff	0.066202156
63	0x3d5ccfec	0.053909227
64	0xbd9f5bf2	-0.07781209
65	0x3c362115	0.011116286
66	0xbd2a68c7	-0.04160383
67	0xbc17ffa1	-0.009277255
68	0x3c7b0776	0.015321603
69	0x3ba80b19	0.005128276
70	0x3d06cca5	0.032910008
71	0x3cb63b8b	0.02224519
72	0x3c494a8f	0.012285843
73	0xbda29181	-0.07937909
74	0x3aade5a4	0.0013267291
75	0xbe28d530	-0.16487575
76	0x3dbbcff3	0.091705225
77	0xbd554eb4	-0.05207701
78	0xbddd07eb	-0.10792526
79	0x3dc8f01c	0.09811422
80	0xbd14ec57	-0.036358204
81	0xbd30ae83	-0.043135177
82	0xbb487334	-0.0030586245
83	0xbcd26c6e	-0.025686469
84	0xbc694420	-0.014237434
85	0x3d09782b	0.033561867
86	0x3d000d26	0.03126254
87	0xbc891760	-0.016734779
88	0xbc7d4903	-0.015459302
89	0x3d14d079	0.036331628
90	0x3cd8803f	0.02642834
91	0xbd821488	-0.06351572
92	0xbc935283	-0.01798368
93	0xbd0c7962	-0.034295447
94	0x3cd55aee	0.026044335
95	0x3d83edb0	0.0644182
96	0x3cdf268f	0.027240066
97	0xbd900e39	-0.07033963
98	0x3d701c34	0.058620647
99	0xbe014a71	-0.12626053
100	0x3d571cbc	0.052517638
101	0xbda8072e	-0.082044944
102	0x3d5b6ecf	0.053572472
103	0x3b35744c	0.0027687727
104	0xbaf6a108	-0.0018816302
105	0x3d471648	0.048605233
106	0xbd39b8ad	-0.045342136
107	0xbd0cb16e	-0.034348898
108	0xbda2c067	-0.07946854
109	0xbd006783	-0.031348716
110	0xbdd618bb	-0.10453936
111	0xbd92c476	-0.07166378
112	0x3d47e2dc	0.048800334
113	0x3d7d6b13	0.061869692
114	0x3cff1095	0.031135837
115	0xbda2bc0e	-0.07946025
116	0x3c06df89	0.008232006
117	0x3b4fde09	0.0031718037
118	0xbdf1c6a2	-0.11805464
119	0xbc3d4195	-0.0115512805
120	0xbd88ed0b	-0.06685837
121	0x3debc72d	0.11512599
122	0xbc266e05	-0.010158067
123	0x3d6f93a8	0.058490425
124	0xbdb439eb	-0.088001095
125	0xbd161363	-0.036639582
126	0xbde91fe6	-0.11383037
127	0x3ce20c56	0.027593773
128	0x3caa691f	0.020802079
129	0xbd915f56	-0.07098262
130	0xbc89c503	-0.016817575
131	0xbb193192	-0.0023375493
132	0x3d649aef	0.05581182
133	0xbb4354f2	-0.002980527
134	0x3b52405c	0.0032081818
135	0x3d1337c3	0.03594185
136	0x3cdfe98e	0.027333047
137	0x3d62077d	0.055182923
138	0x3d8749c4	0.066058666
139	0xbd7a00b2	-0.06103582
140	0x3cf42710	0.029803783
141	0x3d947cda	0.07250376
142	0x3da79ed4	0.08184591
143	0xbdad95db	-0.08475848
144	0x3c83c246	0.016083848
145	0xbca035e4	-0.019556947
146	0xbb1d78ed	-0.0024028376
147	0xbd3030e2	-0.04301537
148	0x3d136a2c	0.035989925
149	0xbdaa1b2f	-0.08305966
150	0x3c48fefe	0.012267826
151	0x3d9a4fda	0.07534762
152	0xbdb63f87	-0.08898836
153	0x3c7434ae	0.014905138
154	0xbade887e	-0.0016977934
155	0x3ccd31fb	0.025048247
156	0x3d2f5f5c	0.04281555
157	0xbd8bcc56	-0.06826083
158	0xbc63de60	-0.013907999
159	0x3d35dc74	0.044399694
160	0x3c4e202b	0.012580912
161	0x3caff85a	0.021480728
162	0xbd2845e2	-0.04108227
163	0x3bcba93f	0.006215244
164	0x3ce53fec	0.027984582
165	0xbdc14d1f	-0.09438538
166	0xbd8068a8	-0.062699616
167	0xba8e96f6	-0.001087873
168	0xbcbd998a	-0.023144502
169	0x3c9414a5	0.01807625
170	0xbd1d53a1	-0.038409833
171	0xbc357201	-0.011074544
172	0xbd12c394	-0.03583105
173	0x3c73ff1d	0.014892367
174	0xbd317c95	-0.0433317
175	0x3df20c20	0.11818719
176	0xb9318a47	-0.00016931548
177	0xbd6c1715	-0.0576392
178	0xbd97cc4d	-0.07412014
179	0xbd4f369c	-0.05058919
180	0x3b5a44bd	0.0033305131
181	0x3cd9e399	0.026597785
182	0x3c9eceb8	0.01938568
183	0xbaee0d7a	-0.0018161975
184	0x3cb663d6	0.022264402
185	0xbceaad0c	-0.028646968
186	0xbd057a45	-0.03258731
187	0xbc8c7e8a	-0.017150182
188	0xbd9716eb	-0.07377418
189	0xbd417a57	-0.047235813
190	0x3c61f1d7	0.013790569
191	0xbb0a3989	-0.0021091423
192	0xbdc88853	-0.09791627
193	0xba2435e5	-0.00062641344
194	0xbda4110a	-0.080110624
195	0x3c3f984b	0.011694024
196	0x3d5e6891	0.05429894
197	0xbd38dff3	-0.04513545
198	0xbcd6cac6	-0.026219737
199	0xbcf6c445	-0.030122885
200	0x3bed0213	0.0072329133
201	0x3d7e2e9e	0.062056176
202	0x3cf38ee3	0.02973122
203	0xbd8f4727	-0.06995993
204	0xbd45876b	-0.048224848
205	0x3d892c76	0.066979334
206	0x3c87e0a8	0.016586617
207	0xbcfcbc00	-0.030851364
208	0xbcd50a1f	-0.026005803
209	0xbb930bec	-0.004487505
210	0x3d580c7c	0.05274628
211	0xbc84c185	-0.016205559
212	0x3d956a53	0.0729567
213	0xbd89bd4c	-0.06725559
214	0x3dbe46a7	0.092908196
215	0x3cb62e2e	0.022238817
216	0x3d368399	0.044559095
217	0x3d07651d	0.033055414
218	0xbca0fcc3	-0.019651776
219	0xbacc77bd	-0.001559965
220	0xbd8db3ce	-0.06919061
221	0xbdcd8146	-0.100344226
222	0xbc39e573	-0.011346209
223	0xbc3d63de	-0.011559455
224	0x3cfd12fb	0.03089284
225	0xbcbf56dc	-0.023356847
226	0x3d7f5362	0.06233538
227	0xbccc61e1	-0.024949016
228	0x3b5fe796	0.0034165136
229	0xbd62e07a	-0.05538986
230	0xbbc92fd6	-0.0061397357
231	0x3d99c5a4	0.075084
232	0x3cbd81e3	0.023133224
233	0x3dbc907c	0.09207246
234	0xbcd5a116	-0.026077788
235	0x3c52281f	0.012826948
236	0xbdda427a	-0.10657211
237	0xbbaaf894	-0.005217621
238	0x3d5362c6	0.05160787
239	0xbd60b0fe	-0.054856293
240	0x3b47cbd0	0.0030486472
241	0x3c592ad3	0.013254839
242	0xbc9beb53	-0.01903311
243	0xbd075acb	-0.03304557
244	0x3c9f7e88	0.019469514
245	0xba824334	-0.0009938241
246	0x3d29b35a	0.04143081
247	0xbda05e31	-0.078304656
248	0x3db78968	0.08961755
249	0x3d917eec	0.071042866
250	0xbdc23af8	-0.09483904
251	0xbce4da44	-0.027936108
252	0xbd2824f3	-0.041050863
253	0x3b208a8d	0.0024496645
254	0x3d44e4a5	0.048069615
255	0xbc4e1aae	-0.012579603

fc.bias f4 [10]
0	0xbceb64ea	-0.028734643
1	0x3c8d9d76	0.017286997
2	0xbd57e866	-0.052711867
3	0x3d1f2da3	0.038861882
4	0x3d00e2fc	0.03146647
5	0xbd1798b8	-0.03701088
6	0x3c1e5bc6	0.009665435
7	0xbd2f3c91	-0.04278237
8	0xbc8e94d8	-0.017404959
9	0xbcba9ba6	-0.022779297
